saved_model_schema_version: 1
meta_graphs {
  meta_info_def {
    stripped_op_list {
      op {
        name: "AddN"
        input_arg {
          name: "inputs"
          type_attr: "T"
          number_attr: "N"
        }
        output_arg {
          name: "sum"
          type_attr: "T"
        }
        attr {
          name: "N"
          type: "int"
          has_minimum: true
          minimum: 1
        }
        attr {
          name: "T"
          type: "type"
          allowed_values {
            list {
              type: DT_FLOAT
              type: DT_DOUBLE
              type: DT_INT32
              type: DT_UINT8
              type: DT_INT16
              type: DT_INT8
              type: DT_COMPLEX64
              type: DT_INT64
              type: DT_QINT8
              type: DT_QUINT8
              type: DT_QINT32
              type: DT_BFLOAT16
              type: DT_UINT16
              type: DT_COMPLEX128
              type: DT_HALF
              type: DT_UINT32
              type: DT_UINT64
              type: DT_VARIANT
            }
          }
        }
        is_aggregate: true
        is_commutative: true
      }
      op {
        name: "Assign"
        input_arg {
          name: "ref"
          type_attr: "T"
          is_ref: true
        }
        input_arg {
          name: "value"
          type_attr: "T"
        }
        output_arg {
          name: "output_ref"
          type_attr: "T"
          is_ref: true
        }
        attr {
          name: "T"
          type: "type"
        }
        attr {
          name: "validate_shape"
          type: "bool"
          default_value {
            b: true
          }
        }
        attr {
          name: "use_locking"
          type: "bool"
          default_value {
            b: true
          }
        }
        allows_uninitialized_input: true
      }
      op {
        name: "AssignVariableOp"
        input_arg {
          name: "resource"
          type: DT_RESOURCE
        }
        input_arg {
          name: "value"
          type_attr: "dtype"
        }
        attr {
          name: "dtype"
          type: "type"
        }
        is_stateful: true
      }
      op {
        name: "BiasAdd"
        input_arg {
          name: "value"
          type_attr: "T"
        }
        input_arg {
          name: "bias"
          type_attr: "T"
        }
        output_arg {
          name: "output"
          type_attr: "T"
        }
        attr {
          name: "T"
          type: "type"
          allowed_values {
            list {
              type: DT_FLOAT
              type: DT_DOUBLE
              type: DT_INT32
              type: DT_UINT8
              type: DT_INT16
              type: DT_INT8
              type: DT_COMPLEX64
              type: DT_INT64
              type: DT_QINT8
              type: DT_QUINT8
              type: DT_QINT32
              type: DT_BFLOAT16
              type: DT_UINT16
              type: DT_COMPLEX128
              type: DT_HALF
              type: DT_UINT32
              type: DT_UINT64
            }
          }
        }
        attr {
          name: "data_format"
          type: "string"
          default_value {
            s: "NHWC"
          }
          allowed_values {
            list {
              s: "NHWC"
              s: "NCHW"
            }
          }
        }
      }
      op {
        name: "Cast"
        input_arg {
          name: "x"
          type_attr: "SrcT"
        }
        output_arg {
          name: "y"
          type_attr: "DstT"
        }
        attr {
          name: "SrcT"
          type: "type"
        }
        attr {
          name: "DstT"
          type: "type"
        }
        attr {
          name: "Truncate"
          type: "bool"
          default_value {
            b: false
          }
        }
      }
      op {
        name: "ConcatV2"
        input_arg {
          name: "values"
          type_attr: "T"
          number_attr: "N"
        }
        input_arg {
          name: "axis"
          type_attr: "Tidx"
        }
        output_arg {
          name: "output"
          type_attr: "T"
        }
        attr {
          name: "N"
          type: "int"
          has_minimum: true
          minimum: 2
        }
        attr {
          name: "T"
          type: "type"
        }
        attr {
          name: "Tidx"
          type: "type"
          default_value {
            type: DT_INT32
          }
          allowed_values {
            list {
              type: DT_INT32
              type: DT_INT64
            }
          }
        }
      }
      op {
        name: "Const"
        output_arg {
          name: "output"
          type_attr: "dtype"
        }
        attr {
          name: "value"
          type: "tensor"
        }
        attr {
          name: "dtype"
          type: "type"
        }
      }
      op {
        name: "Equal"
        input_arg {
          name: "x"
          type_attr: "T"
        }
        input_arg {
          name: "y"
          type_attr: "T"
        }
        output_arg {
          name: "z"
          type: DT_BOOL
        }
        attr {
          name: "T"
          type: "type"
          allowed_values {
            list {
              type: DT_BFLOAT16
              type: DT_HALF
              type: DT_FLOAT
              type: DT_DOUBLE
              type: DT_UINT8
              type: DT_INT8
              type: DT_INT16
              type: DT_INT32
              type: DT_INT64
              type: DT_COMPLEX64
              type: DT_QUINT8
              type: DT_QINT8
              type: DT_QINT32
              type: DT_STRING
              type: DT_BOOL
              type: DT_COMPLEX128
            }
          }
        }
        is_commutative: true
      }
      op {
        name: "Identity"
        input_arg {
          name: "input"
          type_attr: "T"
        }
        output_arg {
          name: "output"
          type_attr: "T"
        }
        attr {
          name: "T"
          type: "type"
        }
      }
      op {
        name: "MatMul"
        input_arg {
          name: "a"
          type_attr: "T"
        }
        input_arg {
          name: "b"
          type_attr: "T"
        }
        output_arg {
          name: "product"
          type_attr: "T"
        }
        attr {
          name: "transpose_a"
          type: "bool"
          default_value {
            b: false
          }
        }
        attr {
          name: "transpose_b"
          type: "bool"
          default_value {
            b: false
          }
        }
        attr {
          name: "T"
          type: "type"
          allowed_values {
            list {
              type: DT_BFLOAT16
              type: DT_HALF
              type: DT_FLOAT
              type: DT_DOUBLE
              type: DT_INT32
              type: DT_COMPLEX64
              type: DT_COMPLEX128
            }
          }
        }
      }
      op {
        name: "Mean"
        input_arg {
          name: "input"
          type_attr: "T"
        }
        input_arg {
          name: "reduction_indices"
          type_attr: "Tidx"
        }
        output_arg {
          name: "output"
          type_attr: "T"
        }
        attr {
          name: "keep_dims"
          type: "bool"
          default_value {
            b: false
          }
        }
        attr {
          name: "T"
          type: "type"
          allowed_values {
            list {
              type: DT_FLOAT
              type: DT_DOUBLE
              type: DT_INT32
              type: DT_UINT8
              type: DT_INT16
              type: DT_INT8
              type: DT_COMPLEX64
              type: DT_INT64
              type: DT_QINT8
              type: DT_QUINT8
              type: DT_QINT32
              type: DT_BFLOAT16
              type: DT_UINT16
              type: DT_COMPLEX128
              type: DT_HALF
              type: DT_UINT32
              type: DT_UINT64
            }
          }
        }
        attr {
          name: "Tidx"
          type: "type"
          default_value {
            type: DT_INT32
          }
          allowed_values {
            list {
              type: DT_INT32
              type: DT_INT64
            }
          }
        }
      }
      op {
        name: "MergeV2Checkpoints"
        input_arg {
          name: "checkpoint_prefixes"
          type: DT_STRING
        }
        input_arg {
          name: "destination_prefix"
          type: DT_STRING
        }
        attr {
          name: "delete_old_dirs"
          type: "bool"
          default_value {
            b: true
          }
        }
        is_stateful: true
      }
      op {
        name: "NoOp"
      }
      op {
        name: "Pack"
        input_arg {
          name: "values"
          type_attr: "T"
          number_attr: "N"
        }
        output_arg {
          name: "output"
          type_attr: "T"
        }
        attr {
          name: "N"
          type: "int"
          has_minimum: true
          minimum: 1
        }
        attr {
          name: "T"
          type: "type"
        }
        attr {
          name: "axis"
          type: "int"
          default_value {
            i: 0
          }
        }
      }
      op {
        name: "ParseExample"
        input_arg {
          name: "serialized"
          type: DT_STRING
        }
        input_arg {
          name: "names"
          type: DT_STRING
        }
        input_arg {
          name: "sparse_keys"
          type: DT_STRING
          number_attr: "Nsparse"
        }
        input_arg {
          name: "dense_keys"
          type: DT_STRING
          number_attr: "Ndense"
        }
        input_arg {
          name: "dense_defaults"
          type_list_attr: "Tdense"
        }
        output_arg {
          name: "sparse_indices"
          type: DT_INT64
          number_attr: "Nsparse"
        }
        output_arg {
          name: "sparse_values"
          type_list_attr: "sparse_types"
        }
        output_arg {
          name: "sparse_shapes"
          type: DT_INT64
          number_attr: "Nsparse"
        }
        output_arg {
          name: "dense_values"
          type_list_attr: "Tdense"
        }
        attr {
          name: "Nsparse"
          type: "int"
          has_minimum: true
        }
        attr {
          name: "Ndense"
          type: "int"
          has_minimum: true
        }
        attr {
          name: "sparse_types"
          type: "list(type)"
          has_minimum: true
          allowed_values {
            list {
              type: DT_FLOAT
              type: DT_INT64
              type: DT_STRING
            }
          }
        }
        attr {
          name: "Tdense"
          type: "list(type)"
          has_minimum: true
          allowed_values {
            list {
              type: DT_FLOAT
              type: DT_INT64
              type: DT_STRING
            }
          }
        }
        attr {
          name: "dense_shapes"
          type: "list(shape)"
          has_minimum: true
        }
      }
      op {
        name: "Placeholder"
        output_arg {
          name: "output"
          type_attr: "dtype"
        }
        attr {
          name: "dtype"
          type: "type"
        }
        attr {
          name: "shape"
          type: "shape"
          default_value {
            shape {
              unknown_rank: true
            }
          }
        }
      }
      op {
        name: "ReadVariableOp"
        input_arg {
          name: "resource"
          type: DT_RESOURCE
        }
        output_arg {
          name: "value"
          type_attr: "dtype"
        }
        attr {
          name: "dtype"
          type: "type"
        }
        is_stateful: true
      }
      op {
        name: "Reshape"
        input_arg {
          name: "tensor"
          type_attr: "T"
        }
        input_arg {
          name: "shape"
          type_attr: "Tshape"
        }
        output_arg {
          name: "output"
          type_attr: "T"
        }
        attr {
          name: "T"
          type: "type"
        }
        attr {
          name: "Tshape"
          type: "type"
          default_value {
            type: DT_INT32
          }
          allowed_values {
            list {
              type: DT_INT32
              type: DT_INT64
            }
          }
        }
      }
      op {
        name: "RestoreV2"
        input_arg {
          name: "prefix"
          type: DT_STRING
        }
        input_arg {
          name: "tensor_names"
          type: DT_STRING
        }
        input_arg {
          name: "shape_and_slices"
          type: DT_STRING
        }
        output_arg {
          name: "tensors"
          type_list_attr: "dtypes"
        }
        attr {
          name: "dtypes"
          type: "list(type)"
          has_minimum: true
          minimum: 1
        }
        is_stateful: true
      }
      op {
        name: "SaveV2"
        input_arg {
          name: "prefix"
          type: DT_STRING
        }
        input_arg {
          name: "tensor_names"
          type: DT_STRING
        }
        input_arg {
          name: "shape_and_slices"
          type: DT_STRING
        }
        input_arg {
          name: "tensors"
          type_list_attr: "dtypes"
        }
        attr {
          name: "dtypes"
          type: "list(type)"
          has_minimum: true
          minimum: 1
        }
        is_stateful: true
      }
      op {
        name: "ScalarSummary"
        input_arg {
          name: "tags"
          type: DT_STRING
        }
        input_arg {
          name: "values"
          type_attr: "T"
        }
        output_arg {
          name: "summary"
          type: DT_STRING
        }
        attr {
          name: "T"
          type: "type"
          allowed_values {
            list {
              type: DT_FLOAT
              type: DT_DOUBLE
              type: DT_INT32
              type: DT_UINT8
              type: DT_INT16
              type: DT_INT8
              type: DT_INT64
              type: DT_BFLOAT16
              type: DT_UINT16
              type: DT_HALF
              type: DT_UINT32
              type: DT_UINT64
            }
          }
        }
      }
      op {
        name: "Shape"
        input_arg {
          name: "input"
          type_attr: "T"
        }
        output_arg {
          name: "output"
          type_attr: "out_type"
        }
        attr {
          name: "T"
          type: "type"
        }
        attr {
          name: "out_type"
          type: "type"
          default_value {
            type: DT_INT32
          }
          allowed_values {
            list {
              type: DT_INT32
              type: DT_INT64
            }
          }
        }
      }
      op {
        name: "ShardedFilename"
        input_arg {
          name: "basename"
          type: DT_STRING
        }
        input_arg {
          name: "shard"
          type: DT_INT32
        }
        input_arg {
          name: "num_shards"
          type: DT_INT32
        }
        output_arg {
          name: "filename"
          type: DT_STRING
        }
      }
      op {
        name: "StridedSlice"
        input_arg {
          name: "input"
          type_attr: "T"
        }
        input_arg {
          name: "begin"
          type_attr: "Index"
        }
        input_arg {
          name: "end"
          type_attr: "Index"
        }
        input_arg {
          name: "strides"
          type_attr: "Index"
        }
        output_arg {
          name: "output"
          type_attr: "T"
        }
        attr {
          name: "T"
          type: "type"
        }
        attr {
          name: "Index"
          type: "type"
          allowed_values {
            list {
              type: DT_INT32
              type: DT_INT64
            }
          }
        }
        attr {
          name: "begin_mask"
          type: "int"
          default_value {
            i: 0
          }
        }
        attr {
          name: "end_mask"
          type: "int"
          default_value {
            i: 0
          }
        }
        attr {
          name: "ellipsis_mask"
          type: "int"
          default_value {
            i: 0
          }
        }
        attr {
          name: "new_axis_mask"
          type: "int"
          default_value {
            i: 0
          }
        }
        attr {
          name: "shrink_axis_mask"
          type: "int"
          default_value {
            i: 0
          }
        }
      }
      op {
        name: "StringJoin"
        input_arg {
          name: "inputs"
          type: DT_STRING
          number_attr: "N"
        }
        output_arg {
          name: "output"
          type: DT_STRING
        }
        attr {
          name: "N"
          type: "int"
          has_minimum: true
          minimum: 1
        }
        attr {
          name: "separator"
          type: "string"
          default_value {
            s: ""
          }
        }
      }
      op {
        name: "VarHandleOp"
        output_arg {
          name: "resource"
          type: DT_RESOURCE
        }
        attr {
          name: "container"
          type: "string"
          default_value {
            s: ""
          }
        }
        attr {
          name: "shared_name"
          type: "string"
          default_value {
            s: ""
          }
        }
        attr {
          name: "dtype"
          type: "type"
        }
        attr {
          name: "shape"
          type: "shape"
        }
        is_stateful: true
      }
      op {
        name: "VarIsInitializedOp"
        input_arg {
          name: "resource"
          type: DT_RESOURCE
        }
        output_arg {
          name: "is_initialized"
          type: DT_BOOL
        }
        is_stateful: true
      }
      op {
        name: "VariableV2"
        output_arg {
          name: "ref"
          type_attr: "dtype"
          is_ref: true
        }
        attr {
          name: "shape"
          type: "shape"
        }
        attr {
          name: "dtype"
          type: "type"
        }
        attr {
          name: "container"
          type: "string"
          default_value {
            s: ""
          }
        }
        attr {
          name: "shared_name"
          type: "string"
          default_value {
            s: ""
          }
        }
        is_stateful: true
      }
    }
    tags: "serve"
    tensorflow_version: "1.12.0"
    tensorflow_git_version: "b\'v1.12.0-rc2-3-ga6d8ffae09\'"
  }
  graph_def {
    node {
      name: "global_step/Initializer/zeros"
      op: "Const"
      attr {
        key: "_class"
        value {
          list {
            s: "loc:@global_step"
          }
        }
      }
      attr {
        key: "_output_shapes"
        value {
          list {
            shape {
            }
          }
        }
      }
      attr {
        key: "dtype"
        value {
          type: DT_INT64
        }
      }
      attr {
        key: "value"
        value {
          tensor {
            dtype: DT_INT64
            tensor_shape {
            }
            int64_val: 0
          }
        }
      }
    }
    node {
      name: "global_step"
      op: "VariableV2"
      attr {
        key: "_class"
        value {
          list {
            s: "loc:@global_step"
          }
        }
      }
      attr {
        key: "_output_shapes"
        value {
          list {
            shape {
            }
          }
        }
      }
      attr {
        key: "container"
        value {
          s: ""
        }
      }
      attr {
        key: "dtype"
        value {
          type: DT_INT64
        }
      }
      attr {
        key: "shape"
        value {
          shape {
          }
        }
      }
      attr {
        key: "shared_name"
        value {
          s: ""
        }
      }
    }
    node {
      name: "global_step/Assign"
      op: "Assign"
      input: "global_step"
      input: "global_step/Initializer/zeros"
      attr {
        key: "T"
        value {
          type: DT_INT64
        }
      }
      attr {
        key: "_class"
        value {
          list {
            s: "loc:@global_step"
          }
        }
      }
      attr {
        key: "_output_shapes"
        value {
          list {
            shape {
            }
          }
        }
      }
      attr {
        key: "use_locking"
        value {
          b: true
        }
      }
      attr {
        key: "validate_shape"
        value {
          b: true
        }
      }
    }
    node {
      name: "global_step/read"
      op: "Identity"
      input: "global_step"
      attr {
        key: "T"
        value {
          type: DT_INT64
        }
      }
      attr {
        key: "_class"
        value {
          list {
            s: "loc:@global_step"
          }
        }
      }
      attr {
        key: "_output_shapes"
        value {
          list {
            shape {
            }
          }
        }
      }
    }
    node {
      name: "input_example_tensor"
      op: "Placeholder"
      attr {
        key: "_output_shapes"
        value {
          list {
            shape {
              dim {
                size: -1
              }
            }
          }
        }
      }
      attr {
        key: "dtype"
        value {
          type: DT_STRING
        }
      }
      attr {
        key: "shape"
        value {
          shape {
            dim {
              size: -1
            }
          }
        }
      }
    }
    node {
      name: "ParseExample/Const"
      op: "Const"
      attr {
        key: "_output_shapes"
        value {
          list {
            shape {
              dim {
              }
            }
          }
        }
      }
      attr {
        key: "dtype"
        value {
          type: DT_FLOAT
        }
      }
      attr {
        key: "value"
        value {
          tensor {
            dtype: DT_FLOAT
            tensor_shape {
              dim {
              }
            }
          }
        }
      }
    }
    node {
      name: "ParseExample/Const_1"
      op: "Const"
      attr {
        key: "_output_shapes"
        value {
          list {
            shape {
              dim {
              }
            }
          }
        }
      }
      attr {
        key: "dtype"
        value {
          type: DT_FLOAT
        }
      }
      attr {
        key: "value"
        value {
          tensor {
            dtype: DT_FLOAT
            tensor_shape {
              dim {
              }
            }
          }
        }
      }
    }
    node {
      name: "ParseExample/Const_2"
      op: "Const"
      attr {
        key: "_output_shapes"
        value {
          list {
            shape {
              dim {
              }
            }
          }
        }
      }
      attr {
        key: "dtype"
        value {
          type: DT_FLOAT
        }
      }
      attr {
        key: "value"
        value {
          tensor {
            dtype: DT_FLOAT
            tensor_shape {
              dim {
              }
            }
          }
        }
      }
    }
    node {
      name: "ParseExample/Const_3"
      op: "Const"
      attr {
        key: "_output_shapes"
        value {
          list {
            shape {
              dim {
              }
            }
          }
        }
      }
      attr {
        key: "dtype"
        value {
          type: DT_FLOAT
        }
      }
      attr {
        key: "value"
        value {
          tensor {
            dtype: DT_FLOAT
            tensor_shape {
              dim {
              }
            }
          }
        }
      }
    }
    node {
      name: "ParseExample/Const_4"
      op: "Const"
      attr {
        key: "_output_shapes"
        value {
          list {
            shape {
              dim {
              }
            }
          }
        }
      }
      attr {
        key: "dtype"
        value {
          type: DT_FLOAT
        }
      }
      attr {
        key: "value"
        value {
          tensor {
            dtype: DT_FLOAT
            tensor_shape {
              dim {
              }
            }
          }
        }
      }
    }
    node {
      name: "ParseExample/Const_5"
      op: "Const"
      attr {
        key: "_output_shapes"
        value {
          list {
            shape {
              dim {
              }
            }
          }
        }
      }
      attr {
        key: "dtype"
        value {
          type: DT_FLOAT
        }
      }
      attr {
        key: "value"
        value {
          tensor {
            dtype: DT_FLOAT
            tensor_shape {
              dim {
              }
            }
          }
        }
      }
    }
    node {
      name: "ParseExample/Const_6"
      op: "Const"
      attr {
        key: "_output_shapes"
        value {
          list {
            shape {
              dim {
              }
            }
          }
        }
      }
      attr {
        key: "dtype"
        value {
          type: DT_FLOAT
        }
      }
      attr {
        key: "value"
        value {
          tensor {
            dtype: DT_FLOAT
            tensor_shape {
              dim {
              }
            }
          }
        }
      }
    }
    node {
      name: "ParseExample/Const_7"
      op: "Const"
      attr {
        key: "_output_shapes"
        value {
          list {
            shape {
              dim {
              }
            }
          }
        }
      }
      attr {
        key: "dtype"
        value {
          type: DT_FLOAT
        }
      }
      attr {
        key: "value"
        value {
          tensor {
            dtype: DT_FLOAT
            tensor_shape {
              dim {
              }
            }
          }
        }
      }
    }
    node {
      name: "ParseExample/Const_8"
      op: "Const"
      attr {
        key: "_output_shapes"
        value {
          list {
            shape {
              dim {
              }
            }
          }
        }
      }
      attr {
        key: "dtype"
        value {
          type: DT_FLOAT
        }
      }
      attr {
        key: "value"
        value {
          tensor {
            dtype: DT_FLOAT
            tensor_shape {
              dim {
              }
            }
          }
        }
      }
    }
    node {
      name: "ParseExample/Const_9"
      op: "Const"
      attr {
        key: "_output_shapes"
        value {
          list {
            shape {
              dim {
              }
            }
          }
        }
      }
      attr {
        key: "dtype"
        value {
          type: DT_FLOAT
        }
      }
      attr {
        key: "value"
        value {
          tensor {
            dtype: DT_FLOAT
            tensor_shape {
              dim {
              }
            }
          }
        }
      }
    }
    node {
      name: "ParseExample/Const_10"
      op: "Const"
      attr {
        key: "_output_shapes"
        value {
          list {
            shape {
              dim {
              }
            }
          }
        }
      }
      attr {
        key: "dtype"
        value {
          type: DT_FLOAT
        }
      }
      attr {
        key: "value"
        value {
          tensor {
            dtype: DT_FLOAT
            tensor_shape {
              dim {
              }
            }
          }
        }
      }
    }
    node {
      name: "ParseExample/Const_11"
      op: "Const"
      attr {
        key: "_output_shapes"
        value {
          list {
            shape {
              dim {
              }
            }
          }
        }
      }
      attr {
        key: "dtype"
        value {
          type: DT_FLOAT
        }
      }
      attr {
        key: "value"
        value {
          tensor {
            dtype: DT_FLOAT
            tensor_shape {
              dim {
              }
            }
          }
        }
      }
    }
    node {
      name: "ParseExample/ParseExample/names"
      op: "Const"
      attr {
        key: "_output_shapes"
        value {
          list {
            shape {
              dim {
              }
            }
          }
        }
      }
      attr {
        key: "dtype"
        value {
          type: DT_STRING
        }
      }
      attr {
        key: "value"
        value {
          tensor {
            dtype: DT_STRING
            tensor_shape {
              dim {
              }
            }
          }
        }
      }
    }
    node {
      name: "ParseExample/ParseExample/dense_keys_0"
      op: "Const"
      attr {
        key: "_output_shapes"
        value {
          list {
            shape {
            }
          }
        }
      }
      attr {
        key: "dtype"
        value {
          type: DT_STRING
        }
      }
      attr {
        key: "value"
        value {
          tensor {
            dtype: DT_STRING
            tensor_shape {
            }
            string_val: "batter3_Game"
          }
        }
      }
    }
    node {
      name: "ParseExample/ParseExample/dense_keys_1"
      op: "Const"
      attr {
        key: "_output_shapes"
        value {
          list {
            shape {
            }
          }
        }
      }
      attr {
        key: "dtype"
        value {
          type: DT_STRING
        }
      }
      attr {
        key: "value"
        value {
          tensor {
            dtype: DT_STRING
            tensor_shape {
            }
            string_val: "batter3_HitRate"
          }
        }
      }
    }
    node {
      name: "ParseExample/ParseExample/dense_keys_2"
      op: "Const"
      attr {
        key: "_output_shapes"
        value {
          list {
            shape {
            }
          }
        }
      }
      attr {
        key: "dtype"
        value {
          type: DT_STRING
        }
      }
      attr {
        key: "value"
        value {
          tensor {
            dtype: DT_STRING
            tensor_shape {
            }
            string_val: "batter4_Game"
          }
        }
      }
    }
    node {
      name: "ParseExample/ParseExample/dense_keys_3"
      op: "Const"
      attr {
        key: "_output_shapes"
        value {
          list {
            shape {
            }
          }
        }
      }
      attr {
        key: "dtype"
        value {
          type: DT_STRING
        }
      }
      attr {
        key: "value"
        value {
          tensor {
            dtype: DT_STRING
            tensor_shape {
            }
            string_val: "batter4_HitRate"
          }
        }
      }
    }
    node {
      name: "ParseExample/ParseExample/dense_keys_4"
      op: "Const"
      attr {
        key: "_output_shapes"
        value {
          list {
            shape {
            }
          }
        }
      }
      attr {
        key: "dtype"
        value {
          type: DT_STRING
        }
      }
      attr {
        key: "value"
        value {
          tensor {
            dtype: DT_STRING
            tensor_shape {
            }
            string_val: "batter8_Game"
          }
        }
      }
    }
    node {
      name: "ParseExample/ParseExample/dense_keys_5"
      op: "Const"
      attr {
        key: "_output_shapes"
        value {
          list {
            shape {
            }
          }
        }
      }
      attr {
        key: "dtype"
        value {
          type: DT_STRING
        }
      }
      attr {
        key: "value"
        value {
          tensor {
            dtype: DT_STRING
            tensor_shape {
            }
            string_val: "batter8_HitRate"
          }
        }
      }
    }
    node {
      name: "ParseExample/ParseExample/dense_keys_6"
      op: "Const"
      attr {
        key: "_output_shapes"
        value {
          list {
            shape {
            }
          }
        }
      }
      attr {
        key: "dtype"
        value {
          type: DT_STRING
        }
      }
      attr {
        key: "value"
        value {
          tensor {
            dtype: DT_STRING
            tensor_shape {
            }
            string_val: "batter9_Game"
          }
        }
      }
    }
    node {
      name: "ParseExample/ParseExample/dense_keys_7"
      op: "Const"
      attr {
        key: "_output_shapes"
        value {
          list {
            shape {
            }
          }
        }
      }
      attr {
        key: "dtype"
        value {
          type: DT_STRING
        }
      }
      attr {
        key: "value"
        value {
          tensor {
            dtype: DT_STRING
            tensor_shape {
            }
            string_val: "batter9_HitRate"
          }
        }
      }
    }
    node {
      name: "ParseExample/ParseExample/dense_keys_8"
      op: "Const"
      attr {
        key: "_output_shapes"
        value {
          list {
            shape {
            }
          }
        }
      }
      attr {
        key: "dtype"
        value {
          type: DT_STRING
        }
      }
      attr {
        key: "value"
        value {
          tensor {
            dtype: DT_STRING
            tensor_shape {
            }
            string_val: "pitcher1_ERA"
          }
        }
      }
    }
    node {
      name: "ParseExample/ParseExample/dense_keys_9"
      op: "Const"
      attr {
        key: "_output_shapes"
        value {
          list {
            shape {
            }
          }
        }
      }
      attr {
        key: "dtype"
        value {
          type: DT_STRING
        }
      }
      attr {
        key: "value"
        value {
          tensor {
            dtype: DT_STRING
            tensor_shape {
            }
            string_val: "pitcher1_Game"
          }
        }
      }
    }
    node {
      name: "ParseExample/ParseExample/dense_keys_10"
      op: "Const"
      attr {
        key: "_output_shapes"
        value {
          list {
            shape {
            }
          }
        }
      }
      attr {
        key: "dtype"
        value {
          type: DT_STRING
        }
      }
      attr {
        key: "value"
        value {
          tensor {
            dtype: DT_STRING
            tensor_shape {
            }
            string_val: "pitcher2_ERA"
          }
        }
      }
    }
    node {
      name: "ParseExample/ParseExample/dense_keys_11"
      op: "Const"
      attr {
        key: "_output_shapes"
        value {
          list {
            shape {
            }
          }
        }
      }
      attr {
        key: "dtype"
        value {
          type: DT_STRING
        }
      }
      attr {
        key: "value"
        value {
          tensor {
            dtype: DT_STRING
            tensor_shape {
            }
            string_val: "pitcher2_Game"
          }
        }
      }
    }
    node {
      name: "ParseExample/ParseExample"
      op: "ParseExample"
      input: "input_example_tensor"
      input: "ParseExample/ParseExample/names"
      input: "ParseExample/ParseExample/dense_keys_0"
      input: "ParseExample/ParseExample/dense_keys_1"
      input: "ParseExample/ParseExample/dense_keys_2"
      input: "ParseExample/ParseExample/dense_keys_3"
      input: "ParseExample/ParseExample/dense_keys_4"
      input: "ParseExample/ParseExample/dense_keys_5"
      input: "ParseExample/ParseExample/dense_keys_6"
      input: "ParseExample/ParseExample/dense_keys_7"
      input: "ParseExample/ParseExample/dense_keys_8"
      input: "ParseExample/ParseExample/dense_keys_9"
      input: "ParseExample/ParseExample/dense_keys_10"
      input: "ParseExample/ParseExample/dense_keys_11"
      input: "ParseExample/Const"
      input: "ParseExample/Const_1"
      input: "ParseExample/Const_2"
      input: "ParseExample/Const_3"
      input: "ParseExample/Const_4"
      input: "ParseExample/Const_5"
      input: "ParseExample/Const_6"
      input: "ParseExample/Const_7"
      input: "ParseExample/Const_8"
      input: "ParseExample/Const_9"
      input: "ParseExample/Const_10"
      input: "ParseExample/Const_11"
      attr {
        key: "Ndense"
        value {
          i: 12
        }
      }
      attr {
        key: "Nsparse"
        value {
          i: 0
        }
      }
      attr {
        key: "Tdense"
        value {
          list {
            type: DT_FLOAT
            type: DT_FLOAT
            type: DT_FLOAT
            type: DT_FLOAT
            type: DT_FLOAT
            type: DT_FLOAT
            type: DT_FLOAT
            type: DT_FLOAT
            type: DT_FLOAT
            type: DT_FLOAT
            type: DT_FLOAT
            type: DT_FLOAT
          }
        }
      }
      attr {
        key: "_output_shapes"
        value {
          list {
            shape {
              dim {
                size: -1
              }
              dim {
                size: 1
              }
            }
            shape {
              dim {
                size: -1
              }
              dim {
                size: 1
              }
            }
            shape {
              dim {
                size: -1
              }
              dim {
                size: 1
              }
            }
            shape {
              dim {
                size: -1
              }
              dim {
                size: 1
              }
            }
            shape {
              dim {
                size: -1
              }
              dim {
                size: 1
              }
            }
            shape {
              dim {
                size: -1
              }
              dim {
                size: 1
              }
            }
            shape {
              dim {
                size: -1
              }
              dim {
                size: 1
              }
            }
            shape {
              dim {
                size: -1
              }
              dim {
                size: 1
              }
            }
            shape {
              dim {
                size: -1
              }
              dim {
                size: 1
              }
            }
            shape {
              dim {
                size: -1
              }
              dim {
                size: 1
              }
            }
            shape {
              dim {
                size: -1
              }
              dim {
                size: 1
              }
            }
            shape {
              dim {
                size: -1
              }
              dim {
                size: 1
              }
            }
          }
        }
      }
      attr {
        key: "dense_shapes"
        value {
          list {
            shape {
              dim {
                size: 1
              }
            }
            shape {
              dim {
                size: 1
              }
            }
            shape {
              dim {
                size: 1
              }
            }
            shape {
              dim {
                size: 1
              }
            }
            shape {
              dim {
                size: 1
              }
            }
            shape {
              dim {
                size: 1
              }
            }
            shape {
              dim {
                size: 1
              }
            }
            shape {
              dim {
                size: 1
              }
            }
            shape {
              dim {
                size: 1
              }
            }
            shape {
              dim {
                size: 1
              }
            }
            shape {
              dim {
                size: 1
              }
            }
            shape {
              dim {
                size: 1
              }
            }
          }
        }
      }
      attr {
        key: "sparse_types"
        value {
          list {
          }
        }
      }
    }
    node {
      name: "linear/linear_model/batter3_Game/weights/part_0/Initializer/zeros"
      op: "Const"
      attr {
        key: "_class"
        value {
          list {
            s: "loc:@linear/linear_model/batter3_Game/weights/part_0"
          }
        }
      }
      attr {
        key: "_output_shapes"
        value {
          list {
            shape {
              dim {
                size: 1
              }
              dim {
                size: 1
              }
            }
          }
        }
      }
      attr {
        key: "dtype"
        value {
          type: DT_FLOAT
        }
      }
      attr {
        key: "value"
        value {
          tensor {
            dtype: DT_FLOAT
            tensor_shape {
              dim {
                size: 1
              }
              dim {
                size: 1
              }
            }
            float_val: 0.0
          }
        }
      }
    }
    node {
      name: "linear/linear_model/batter3_Game/weights/part_0"
      op: "VarHandleOp"
      attr {
        key: "_class"
        value {
          list {
            s: "loc:@linear/linear_model/batter3_Game/weights/part_0"
          }
        }
      }
      attr {
        key: "_output_shapes"
        value {
          list {
            shape {
            }
          }
        }
      }
      attr {
        key: "container"
        value {
          s: ""
        }
      }
      attr {
        key: "dtype"
        value {
          type: DT_FLOAT
        }
      }
      attr {
        key: "shape"
        value {
          shape {
            dim {
              size: 1
            }
            dim {
              size: 1
            }
          }
        }
      }
      attr {
        key: "shared_name"
        value {
          s: "linear/linear_model/batter3_Game/weights/part_0"
        }
      }
    }
    node {
      name: "linear/linear_model/batter3_Game/weights/part_0/IsInitialized/VarIsInitializedOp"
      op: "VarIsInitializedOp"
      input: "linear/linear_model/batter3_Game/weights/part_0"
      attr {
        key: "_output_shapes"
        value {
          list {
            shape {
            }
          }
        }
      }
    }
    node {
      name: "linear/linear_model/batter3_Game/weights/part_0/Assign"
      op: "AssignVariableOp"
      input: "linear/linear_model/batter3_Game/weights/part_0"
      input: "linear/linear_model/batter3_Game/weights/part_0/Initializer/zeros"
      attr {
        key: "_class"
        value {
          list {
            s: "loc:@linear/linear_model/batter3_Game/weights/part_0"
          }
        }
      }
      attr {
        key: "dtype"
        value {
          type: DT_FLOAT
        }
      }
    }
    node {
      name: "linear/linear_model/batter3_Game/weights/part_0/Read/ReadVariableOp"
      op: "ReadVariableOp"
      input: "linear/linear_model/batter3_Game/weights/part_0"
      attr {
        key: "_class"
        value {
          list {
            s: "loc:@linear/linear_model/batter3_Game/weights/part_0"
          }
        }
      }
      attr {
        key: "_output_shapes"
        value {
          list {
            shape {
              dim {
                size: 1
              }
              dim {
                size: 1
              }
            }
          }
        }
      }
      attr {
        key: "dtype"
        value {
          type: DT_FLOAT
        }
      }
    }
    node {
      name: "linear/linear_model/linear_model/batter3_Game/Shape"
      op: "Shape"
      input: "ParseExample/ParseExample"
      attr {
        key: "T"
        value {
          type: DT_FLOAT
        }
      }
      attr {
        key: "_output_shapes"
        value {
          list {
            shape {
              dim {
                size: 2
              }
            }
          }
        }
      }
      attr {
        key: "out_type"
        value {
          type: DT_INT32
        }
      }
    }
    node {
      name: "linear/linear_model/linear_model/batter3_Game/strided_slice/stack"
      op: "Const"
      attr {
        key: "_output_shapes"
        value {
          list {
            shape {
              dim {
                size: 1
              }
            }
          }
        }
      }
      attr {
        key: "dtype"
        value {
          type: DT_INT32
        }
      }
      attr {
        key: "value"
        value {
          tensor {
            dtype: DT_INT32
            tensor_shape {
              dim {
                size: 1
              }
            }
            int_val: 0
          }
        }
      }
    }
    node {
      name: "linear/linear_model/linear_model/batter3_Game/strided_slice/stack_1"
      op: "Const"
      attr {
        key: "_output_shapes"
        value {
          list {
            shape {
              dim {
                size: 1
              }
            }
          }
        }
      }
      attr {
        key: "dtype"
        value {
          type: DT_INT32
        }
      }
      attr {
        key: "value"
        value {
          tensor {
            dtype: DT_INT32
            tensor_shape {
              dim {
                size: 1
              }
            }
            int_val: 1
          }
        }
      }
    }
    node {
      name: "linear/linear_model/linear_model/batter3_Game/strided_slice/stack_2"
      op: "Const"
      attr {
        key: "_output_shapes"
        value {
          list {
            shape {
              dim {
                size: 1
              }
            }
          }
        }
      }
      attr {
        key: "dtype"
        value {
          type: DT_INT32
        }
      }
      attr {
        key: "value"
        value {
          tensor {
            dtype: DT_INT32
            tensor_shape {
              dim {
                size: 1
              }
            }
            int_val: 1
          }
        }
      }
    }
    node {
      name: "linear/linear_model/linear_model/batter3_Game/strided_slice"
      op: "StridedSlice"
      input: "linear/linear_model/linear_model/batter3_Game/Shape"
      input: "linear/linear_model/linear_model/batter3_Game/strided_slice/stack"
      input: "linear/linear_model/linear_model/batter3_Game/strided_slice/stack_1"
      input: "linear/linear_model/linear_model/batter3_Game/strided_slice/stack_2"
      attr {
        key: "Index"
        value {
          type: DT_INT32
        }
      }
      attr {
        key: "T"
        value {
          type: DT_INT32
        }
      }
      attr {
        key: "_output_shapes"
        value {
          list {
            shape {
            }
          }
        }
      }
      attr {
        key: "begin_mask"
        value {
          i: 0
        }
      }
      attr {
        key: "ellipsis_mask"
        value {
          i: 0
        }
      }
      attr {
        key: "end_mask"
        value {
          i: 0
        }
      }
      attr {
        key: "new_axis_mask"
        value {
          i: 0
        }
      }
      attr {
        key: "shrink_axis_mask"
        value {
          i: 1
        }
      }
    }
    node {
      name: "linear/linear_model/linear_model/batter3_Game/Reshape/shape/1"
      op: "Const"
      attr {
        key: "_output_shapes"
        value {
          list {
            shape {
            }
          }
        }
      }
      attr {
        key: "dtype"
        value {
          type: DT_INT32
        }
      }
      attr {
        key: "value"
        value {
          tensor {
            dtype: DT_INT32
            tensor_shape {
            }
            int_val: 1
          }
        }
      }
    }
    node {
      name: "linear/linear_model/linear_model/batter3_Game/Reshape/shape"
      op: "Pack"
      input: "linear/linear_model/linear_model/batter3_Game/strided_slice"
      input: "linear/linear_model/linear_model/batter3_Game/Reshape/shape/1"
      attr {
        key: "N"
        value {
          i: 2
        }
      }
      attr {
        key: "T"
        value {
          type: DT_INT32
        }
      }
      attr {
        key: "_output_shapes"
        value {
          list {
            shape {
              dim {
                size: 2
              }
            }
          }
        }
      }
      attr {
        key: "axis"
        value {
          i: 0
        }
      }
    }
    node {
      name: "linear/linear_model/linear_model/batter3_Game/Reshape"
      op: "Reshape"
      input: "ParseExample/ParseExample"
      input: "linear/linear_model/linear_model/batter3_Game/Reshape/shape"
      attr {
        key: "T"
        value {
          type: DT_FLOAT
        }
      }
      attr {
        key: "Tshape"
        value {
          type: DT_INT32
        }
      }
      attr {
        key: "_output_shapes"
        value {
          list {
            shape {
              dim {
                size: -1
              }
              dim {
                size: 1
              }
            }
          }
        }
      }
    }
    node {
      name: "linear/linear_model/batter3_Game/weights/ReadVariableOp"
      op: "ReadVariableOp"
      input: "linear/linear_model/batter3_Game/weights/part_0"
      attr {
        key: "_output_shapes"
        value {
          list {
            shape {
              dim {
                size: 1
              }
              dim {
                size: 1
              }
            }
          }
        }
      }
      attr {
        key: "dtype"
        value {
          type: DT_FLOAT
        }
      }
    }
    node {
      name: "linear/linear_model/batter3_Game/weights"
      op: "Identity"
      input: "linear/linear_model/batter3_Game/weights/ReadVariableOp"
      attr {
        key: "T"
        value {
          type: DT_FLOAT
        }
      }
      attr {
        key: "_output_shapes"
        value {
          list {
            shape {
              dim {
                size: 1
              }
              dim {
                size: 1
              }
            }
          }
        }
      }
    }
    node {
      name: "linear/linear_model/linear_model/batter3_Game/weighted_sum"
      op: "MatMul"
      input: "linear/linear_model/linear_model/batter3_Game/Reshape"
      input: "linear/linear_model/batter3_Game/weights"
      attr {
        key: "T"
        value {
          type: DT_FLOAT
        }
      }
      attr {
        key: "_output_shapes"
        value {
          list {
            shape {
              dim {
                size: -1
              }
              dim {
                size: 1
              }
            }
          }
        }
      }
      attr {
        key: "transpose_a"
        value {
          b: false
        }
      }
      attr {
        key: "transpose_b"
        value {
          b: false
        }
      }
    }
    node {
      name: "linear/linear_model/batter3_HitRate/weights/part_0/Initializer/zeros"
      op: "Const"
      attr {
        key: "_class"
        value {
          list {
            s: "loc:@linear/linear_model/batter3_HitRate/weights/part_0"
          }
        }
      }
      attr {
        key: "_output_shapes"
        value {
          list {
            shape {
              dim {
                size: 1
              }
              dim {
                size: 1
              }
            }
          }
        }
      }
      attr {
        key: "dtype"
        value {
          type: DT_FLOAT
        }
      }
      attr {
        key: "value"
        value {
          tensor {
            dtype: DT_FLOAT
            tensor_shape {
              dim {
                size: 1
              }
              dim {
                size: 1
              }
            }
            float_val: 0.0
          }
        }
      }
    }
    node {
      name: "linear/linear_model/batter3_HitRate/weights/part_0"
      op: "VarHandleOp"
      attr {
        key: "_class"
        value {
          list {
            s: "loc:@linear/linear_model/batter3_HitRate/weights/part_0"
          }
        }
      }
      attr {
        key: "_output_shapes"
        value {
          list {
            shape {
            }
          }
        }
      }
      attr {
        key: "container"
        value {
          s: ""
        }
      }
      attr {
        key: "dtype"
        value {
          type: DT_FLOAT
        }
      }
      attr {
        key: "shape"
        value {
          shape {
            dim {
              size: 1
            }
            dim {
              size: 1
            }
          }
        }
      }
      attr {
        key: "shared_name"
        value {
          s: "linear/linear_model/batter3_HitRate/weights/part_0"
        }
      }
    }
    node {
      name: "linear/linear_model/batter3_HitRate/weights/part_0/IsInitialized/VarIsInitializedOp"
      op: "VarIsInitializedOp"
      input: "linear/linear_model/batter3_HitRate/weights/part_0"
      attr {
        key: "_output_shapes"
        value {
          list {
            shape {
            }
          }
        }
      }
    }
    node {
      name: "linear/linear_model/batter3_HitRate/weights/part_0/Assign"
      op: "AssignVariableOp"
      input: "linear/linear_model/batter3_HitRate/weights/part_0"
      input: "linear/linear_model/batter3_HitRate/weights/part_0/Initializer/zeros"
      attr {
        key: "_class"
        value {
          list {
            s: "loc:@linear/linear_model/batter3_HitRate/weights/part_0"
          }
        }
      }
      attr {
        key: "dtype"
        value {
          type: DT_FLOAT
        }
      }
    }
    node {
      name: "linear/linear_model/batter3_HitRate/weights/part_0/Read/ReadVariableOp"
      op: "ReadVariableOp"
      input: "linear/linear_model/batter3_HitRate/weights/part_0"
      attr {
        key: "_class"
        value {
          list {
            s: "loc:@linear/linear_model/batter3_HitRate/weights/part_0"
          }
        }
      }
      attr {
        key: "_output_shapes"
        value {
          list {
            shape {
              dim {
                size: 1
              }
              dim {
                size: 1
              }
            }
          }
        }
      }
      attr {
        key: "dtype"
        value {
          type: DT_FLOAT
        }
      }
    }
    node {
      name: "linear/linear_model/linear_model/batter3_HitRate/Shape"
      op: "Shape"
      input: "ParseExample/ParseExample:1"
      attr {
        key: "T"
        value {
          type: DT_FLOAT
        }
      }
      attr {
        key: "_output_shapes"
        value {
          list {
            shape {
              dim {
                size: 2
              }
            }
          }
        }
      }
      attr {
        key: "out_type"
        value {
          type: DT_INT32
        }
      }
    }
    node {
      name: "linear/linear_model/linear_model/batter3_HitRate/strided_slice/stack"
      op: "Const"
      attr {
        key: "_output_shapes"
        value {
          list {
            shape {
              dim {
                size: 1
              }
            }
          }
        }
      }
      attr {
        key: "dtype"
        value {
          type: DT_INT32
        }
      }
      attr {
        key: "value"
        value {
          tensor {
            dtype: DT_INT32
            tensor_shape {
              dim {
                size: 1
              }
            }
            int_val: 0
          }
        }
      }
    }
    node {
      name: "linear/linear_model/linear_model/batter3_HitRate/strided_slice/stack_1"
      op: "Const"
      attr {
        key: "_output_shapes"
        value {
          list {
            shape {
              dim {
                size: 1
              }
            }
          }
        }
      }
      attr {
        key: "dtype"
        value {
          type: DT_INT32
        }
      }
      attr {
        key: "value"
        value {
          tensor {
            dtype: DT_INT32
            tensor_shape {
              dim {
                size: 1
              }
            }
            int_val: 1
          }
        }
      }
    }
    node {
      name: "linear/linear_model/linear_model/batter3_HitRate/strided_slice/stack_2"
      op: "Const"
      attr {
        key: "_output_shapes"
        value {
          list {
            shape {
              dim {
                size: 1
              }
            }
          }
        }
      }
      attr {
        key: "dtype"
        value {
          type: DT_INT32
        }
      }
      attr {
        key: "value"
        value {
          tensor {
            dtype: DT_INT32
            tensor_shape {
              dim {
                size: 1
              }
            }
            int_val: 1
          }
        }
      }
    }
    node {
      name: "linear/linear_model/linear_model/batter3_HitRate/strided_slice"
      op: "StridedSlice"
      input: "linear/linear_model/linear_model/batter3_HitRate/Shape"
      input: "linear/linear_model/linear_model/batter3_HitRate/strided_slice/stack"
      input: "linear/linear_model/linear_model/batter3_HitRate/strided_slice/stack_1"
      input: "linear/linear_model/linear_model/batter3_HitRate/strided_slice/stack_2"
      attr {
        key: "Index"
        value {
          type: DT_INT32
        }
      }
      attr {
        key: "T"
        value {
          type: DT_INT32
        }
      }
      attr {
        key: "_output_shapes"
        value {
          list {
            shape {
            }
          }
        }
      }
      attr {
        key: "begin_mask"
        value {
          i: 0
        }
      }
      attr {
        key: "ellipsis_mask"
        value {
          i: 0
        }
      }
      attr {
        key: "end_mask"
        value {
          i: 0
        }
      }
      attr {
        key: "new_axis_mask"
        value {
          i: 0
        }
      }
      attr {
        key: "shrink_axis_mask"
        value {
          i: 1
        }
      }
    }
    node {
      name: "linear/linear_model/linear_model/batter3_HitRate/Reshape/shape/1"
      op: "Const"
      attr {
        key: "_output_shapes"
        value {
          list {
            shape {
            }
          }
        }
      }
      attr {
        key: "dtype"
        value {
          type: DT_INT32
        }
      }
      attr {
        key: "value"
        value {
          tensor {
            dtype: DT_INT32
            tensor_shape {
            }
            int_val: 1
          }
        }
      }
    }
    node {
      name: "linear/linear_model/linear_model/batter3_HitRate/Reshape/shape"
      op: "Pack"
      input: "linear/linear_model/linear_model/batter3_HitRate/strided_slice"
      input: "linear/linear_model/linear_model/batter3_HitRate/Reshape/shape/1"
      attr {
        key: "N"
        value {
          i: 2
        }
      }
      attr {
        key: "T"
        value {
          type: DT_INT32
        }
      }
      attr {
        key: "_output_shapes"
        value {
          list {
            shape {
              dim {
                size: 2
              }
            }
          }
        }
      }
      attr {
        key: "axis"
        value {
          i: 0
        }
      }
    }
    node {
      name: "linear/linear_model/linear_model/batter3_HitRate/Reshape"
      op: "Reshape"
      input: "ParseExample/ParseExample:1"
      input: "linear/linear_model/linear_model/batter3_HitRate/Reshape/shape"
      attr {
        key: "T"
        value {
          type: DT_FLOAT
        }
      }
      attr {
        key: "Tshape"
        value {
          type: DT_INT32
        }
      }
      attr {
        key: "_output_shapes"
        value {
          list {
            shape {
              dim {
                size: -1
              }
              dim {
                size: 1
              }
            }
          }
        }
      }
    }
    node {
      name: "linear/linear_model/batter3_HitRate/weights/ReadVariableOp"
      op: "ReadVariableOp"
      input: "linear/linear_model/batter3_HitRate/weights/part_0"
      attr {
        key: "_output_shapes"
        value {
          list {
            shape {
              dim {
                size: 1
              }
              dim {
                size: 1
              }
            }
          }
        }
      }
      attr {
        key: "dtype"
        value {
          type: DT_FLOAT
        }
      }
    }
    node {
      name: "linear/linear_model/batter3_HitRate/weights"
      op: "Identity"
      input: "linear/linear_model/batter3_HitRate/weights/ReadVariableOp"
      attr {
        key: "T"
        value {
          type: DT_FLOAT
        }
      }
      attr {
        key: "_output_shapes"
        value {
          list {
            shape {
              dim {
                size: 1
              }
              dim {
                size: 1
              }
            }
          }
        }
      }
    }
    node {
      name: "linear/linear_model/linear_model/batter3_HitRate/weighted_sum"
      op: "MatMul"
      input: "linear/linear_model/linear_model/batter3_HitRate/Reshape"
      input: "linear/linear_model/batter3_HitRate/weights"
      attr {
        key: "T"
        value {
          type: DT_FLOAT
        }
      }
      attr {
        key: "_output_shapes"
        value {
          list {
            shape {
              dim {
                size: -1
              }
              dim {
                size: 1
              }
            }
          }
        }
      }
      attr {
        key: "transpose_a"
        value {
          b: false
        }
      }
      attr {
        key: "transpose_b"
        value {
          b: false
        }
      }
    }
    node {
      name: "linear/linear_model/batter4_Game/weights/part_0/Initializer/zeros"
      op: "Const"
      attr {
        key: "_class"
        value {
          list {
            s: "loc:@linear/linear_model/batter4_Game/weights/part_0"
          }
        }
      }
      attr {
        key: "_output_shapes"
        value {
          list {
            shape {
              dim {
                size: 1
              }
              dim {
                size: 1
              }
            }
          }
        }
      }
      attr {
        key: "dtype"
        value {
          type: DT_FLOAT
        }
      }
      attr {
        key: "value"
        value {
          tensor {
            dtype: DT_FLOAT
            tensor_shape {
              dim {
                size: 1
              }
              dim {
                size: 1
              }
            }
            float_val: 0.0
          }
        }
      }
    }
    node {
      name: "linear/linear_model/batter4_Game/weights/part_0"
      op: "VarHandleOp"
      attr {
        key: "_class"
        value {
          list {
            s: "loc:@linear/linear_model/batter4_Game/weights/part_0"
          }
        }
      }
      attr {
        key: "_output_shapes"
        value {
          list {
            shape {
            }
          }
        }
      }
      attr {
        key: "container"
        value {
          s: ""
        }
      }
      attr {
        key: "dtype"
        value {
          type: DT_FLOAT
        }
      }
      attr {
        key: "shape"
        value {
          shape {
            dim {
              size: 1
            }
            dim {
              size: 1
            }
          }
        }
      }
      attr {
        key: "shared_name"
        value {
          s: "linear/linear_model/batter4_Game/weights/part_0"
        }
      }
    }
    node {
      name: "linear/linear_model/batter4_Game/weights/part_0/IsInitialized/VarIsInitializedOp"
      op: "VarIsInitializedOp"
      input: "linear/linear_model/batter4_Game/weights/part_0"
      attr {
        key: "_output_shapes"
        value {
          list {
            shape {
            }
          }
        }
      }
    }
    node {
      name: "linear/linear_model/batter4_Game/weights/part_0/Assign"
      op: "AssignVariableOp"
      input: "linear/linear_model/batter4_Game/weights/part_0"
      input: "linear/linear_model/batter4_Game/weights/part_0/Initializer/zeros"
      attr {
        key: "_class"
        value {
          list {
            s: "loc:@linear/linear_model/batter4_Game/weights/part_0"
          }
        }
      }
      attr {
        key: "dtype"
        value {
          type: DT_FLOAT
        }
      }
    }
    node {
      name: "linear/linear_model/batter4_Game/weights/part_0/Read/ReadVariableOp"
      op: "ReadVariableOp"
      input: "linear/linear_model/batter4_Game/weights/part_0"
      attr {
        key: "_class"
        value {
          list {
            s: "loc:@linear/linear_model/batter4_Game/weights/part_0"
          }
        }
      }
      attr {
        key: "_output_shapes"
        value {
          list {
            shape {
              dim {
                size: 1
              }
              dim {
                size: 1
              }
            }
          }
        }
      }
      attr {
        key: "dtype"
        value {
          type: DT_FLOAT
        }
      }
    }
    node {
      name: "linear/linear_model/linear_model/batter4_Game/Shape"
      op: "Shape"
      input: "ParseExample/ParseExample:2"
      attr {
        key: "T"
        value {
          type: DT_FLOAT
        }
      }
      attr {
        key: "_output_shapes"
        value {
          list {
            shape {
              dim {
                size: 2
              }
            }
          }
        }
      }
      attr {
        key: "out_type"
        value {
          type: DT_INT32
        }
      }
    }
    node {
      name: "linear/linear_model/linear_model/batter4_Game/strided_slice/stack"
      op: "Const"
      attr {
        key: "_output_shapes"
        value {
          list {
            shape {
              dim {
                size: 1
              }
            }
          }
        }
      }
      attr {
        key: "dtype"
        value {
          type: DT_INT32
        }
      }
      attr {
        key: "value"
        value {
          tensor {
            dtype: DT_INT32
            tensor_shape {
              dim {
                size: 1
              }
            }
            int_val: 0
          }
        }
      }
    }
    node {
      name: "linear/linear_model/linear_model/batter4_Game/strided_slice/stack_1"
      op: "Const"
      attr {
        key: "_output_shapes"
        value {
          list {
            shape {
              dim {
                size: 1
              }
            }
          }
        }
      }
      attr {
        key: "dtype"
        value {
          type: DT_INT32
        }
      }
      attr {
        key: "value"
        value {
          tensor {
            dtype: DT_INT32
            tensor_shape {
              dim {
                size: 1
              }
            }
            int_val: 1
          }
        }
      }
    }
    node {
      name: "linear/linear_model/linear_model/batter4_Game/strided_slice/stack_2"
      op: "Const"
      attr {
        key: "_output_shapes"
        value {
          list {
            shape {
              dim {
                size: 1
              }
            }
          }
        }
      }
      attr {
        key: "dtype"
        value {
          type: DT_INT32
        }
      }
      attr {
        key: "value"
        value {
          tensor {
            dtype: DT_INT32
            tensor_shape {
              dim {
                size: 1
              }
            }
            int_val: 1
          }
        }
      }
    }
    node {
      name: "linear/linear_model/linear_model/batter4_Game/strided_slice"
      op: "StridedSlice"
      input: "linear/linear_model/linear_model/batter4_Game/Shape"
      input: "linear/linear_model/linear_model/batter4_Game/strided_slice/stack"
      input: "linear/linear_model/linear_model/batter4_Game/strided_slice/stack_1"
      input: "linear/linear_model/linear_model/batter4_Game/strided_slice/stack_2"
      attr {
        key: "Index"
        value {
          type: DT_INT32
        }
      }
      attr {
        key: "T"
        value {
          type: DT_INT32
        }
      }
      attr {
        key: "_output_shapes"
        value {
          list {
            shape {
            }
          }
        }
      }
      attr {
        key: "begin_mask"
        value {
          i: 0
        }
      }
      attr {
        key: "ellipsis_mask"
        value {
          i: 0
        }
      }
      attr {
        key: "end_mask"
        value {
          i: 0
        }
      }
      attr {
        key: "new_axis_mask"
        value {
          i: 0
        }
      }
      attr {
        key: "shrink_axis_mask"
        value {
          i: 1
        }
      }
    }
    node {
      name: "linear/linear_model/linear_model/batter4_Game/Reshape/shape/1"
      op: "Const"
      attr {
        key: "_output_shapes"
        value {
          list {
            shape {
            }
          }
        }
      }
      attr {
        key: "dtype"
        value {
          type: DT_INT32
        }
      }
      attr {
        key: "value"
        value {
          tensor {
            dtype: DT_INT32
            tensor_shape {
            }
            int_val: 1
          }
        }
      }
    }
    node {
      name: "linear/linear_model/linear_model/batter4_Game/Reshape/shape"
      op: "Pack"
      input: "linear/linear_model/linear_model/batter4_Game/strided_slice"
      input: "linear/linear_model/linear_model/batter4_Game/Reshape/shape/1"
      attr {
        key: "N"
        value {
          i: 2
        }
      }
      attr {
        key: "T"
        value {
          type: DT_INT32
        }
      }
      attr {
        key: "_output_shapes"
        value {
          list {
            shape {
              dim {
                size: 2
              }
            }
          }
        }
      }
      attr {
        key: "axis"
        value {
          i: 0
        }
      }
    }
    node {
      name: "linear/linear_model/linear_model/batter4_Game/Reshape"
      op: "Reshape"
      input: "ParseExample/ParseExample:2"
      input: "linear/linear_model/linear_model/batter4_Game/Reshape/shape"
      attr {
        key: "T"
        value {
          type: DT_FLOAT
        }
      }
      attr {
        key: "Tshape"
        value {
          type: DT_INT32
        }
      }
      attr {
        key: "_output_shapes"
        value {
          list {
            shape {
              dim {
                size: -1
              }
              dim {
                size: 1
              }
            }
          }
        }
      }
    }
    node {
      name: "linear/linear_model/batter4_Game/weights/ReadVariableOp"
      op: "ReadVariableOp"
      input: "linear/linear_model/batter4_Game/weights/part_0"
      attr {
        key: "_output_shapes"
        value {
          list {
            shape {
              dim {
                size: 1
              }
              dim {
                size: 1
              }
            }
          }
        }
      }
      attr {
        key: "dtype"
        value {
          type: DT_FLOAT
        }
      }
    }
    node {
      name: "linear/linear_model/batter4_Game/weights"
      op: "Identity"
      input: "linear/linear_model/batter4_Game/weights/ReadVariableOp"
      attr {
        key: "T"
        value {
          type: DT_FLOAT
        }
      }
      attr {
        key: "_output_shapes"
        value {
          list {
            shape {
              dim {
                size: 1
              }
              dim {
                size: 1
              }
            }
          }
        }
      }
    }
    node {
      name: "linear/linear_model/linear_model/batter4_Game/weighted_sum"
      op: "MatMul"
      input: "linear/linear_model/linear_model/batter4_Game/Reshape"
      input: "linear/linear_model/batter4_Game/weights"
      attr {
        key: "T"
        value {
          type: DT_FLOAT
        }
      }
      attr {
        key: "_output_shapes"
        value {
          list {
            shape {
              dim {
                size: -1
              }
              dim {
                size: 1
              }
            }
          }
        }
      }
      attr {
        key: "transpose_a"
        value {
          b: false
        }
      }
      attr {
        key: "transpose_b"
        value {
          b: false
        }
      }
    }
    node {
      name: "linear/linear_model/batter4_HitRate/weights/part_0/Initializer/zeros"
      op: "Const"
      attr {
        key: "_class"
        value {
          list {
            s: "loc:@linear/linear_model/batter4_HitRate/weights/part_0"
          }
        }
      }
      attr {
        key: "_output_shapes"
        value {
          list {
            shape {
              dim {
                size: 1
              }
              dim {
                size: 1
              }
            }
          }
        }
      }
      attr {
        key: "dtype"
        value {
          type: DT_FLOAT
        }
      }
      attr {
        key: "value"
        value {
          tensor {
            dtype: DT_FLOAT
            tensor_shape {
              dim {
                size: 1
              }
              dim {
                size: 1
              }
            }
            float_val: 0.0
          }
        }
      }
    }
    node {
      name: "linear/linear_model/batter4_HitRate/weights/part_0"
      op: "VarHandleOp"
      attr {
        key: "_class"
        value {
          list {
            s: "loc:@linear/linear_model/batter4_HitRate/weights/part_0"
          }
        }
      }
      attr {
        key: "_output_shapes"
        value {
          list {
            shape {
            }
          }
        }
      }
      attr {
        key: "container"
        value {
          s: ""
        }
      }
      attr {
        key: "dtype"
        value {
          type: DT_FLOAT
        }
      }
      attr {
        key: "shape"
        value {
          shape {
            dim {
              size: 1
            }
            dim {
              size: 1
            }
          }
        }
      }
      attr {
        key: "shared_name"
        value {
          s: "linear/linear_model/batter4_HitRate/weights/part_0"
        }
      }
    }
    node {
      name: "linear/linear_model/batter4_HitRate/weights/part_0/IsInitialized/VarIsInitializedOp"
      op: "VarIsInitializedOp"
      input: "linear/linear_model/batter4_HitRate/weights/part_0"
      attr {
        key: "_output_shapes"
        value {
          list {
            shape {
            }
          }
        }
      }
    }
    node {
      name: "linear/linear_model/batter4_HitRate/weights/part_0/Assign"
      op: "AssignVariableOp"
      input: "linear/linear_model/batter4_HitRate/weights/part_0"
      input: "linear/linear_model/batter4_HitRate/weights/part_0/Initializer/zeros"
      attr {
        key: "_class"
        value {
          list {
            s: "loc:@linear/linear_model/batter4_HitRate/weights/part_0"
          }
        }
      }
      attr {
        key: "dtype"
        value {
          type: DT_FLOAT
        }
      }
    }
    node {
      name: "linear/linear_model/batter4_HitRate/weights/part_0/Read/ReadVariableOp"
      op: "ReadVariableOp"
      input: "linear/linear_model/batter4_HitRate/weights/part_0"
      attr {
        key: "_class"
        value {
          list {
            s: "loc:@linear/linear_model/batter4_HitRate/weights/part_0"
          }
        }
      }
      attr {
        key: "_output_shapes"
        value {
          list {
            shape {
              dim {
                size: 1
              }
              dim {
                size: 1
              }
            }
          }
        }
      }
      attr {
        key: "dtype"
        value {
          type: DT_FLOAT
        }
      }
    }
    node {
      name: "linear/linear_model/linear_model/batter4_HitRate/Shape"
      op: "Shape"
      input: "ParseExample/ParseExample:3"
      attr {
        key: "T"
        value {
          type: DT_FLOAT
        }
      }
      attr {
        key: "_output_shapes"
        value {
          list {
            shape {
              dim {
                size: 2
              }
            }
          }
        }
      }
      attr {
        key: "out_type"
        value {
          type: DT_INT32
        }
      }
    }
    node {
      name: "linear/linear_model/linear_model/batter4_HitRate/strided_slice/stack"
      op: "Const"
      attr {
        key: "_output_shapes"
        value {
          list {
            shape {
              dim {
                size: 1
              }
            }
          }
        }
      }
      attr {
        key: "dtype"
        value {
          type: DT_INT32
        }
      }
      attr {
        key: "value"
        value {
          tensor {
            dtype: DT_INT32
            tensor_shape {
              dim {
                size: 1
              }
            }
            int_val: 0
          }
        }
      }
    }
    node {
      name: "linear/linear_model/linear_model/batter4_HitRate/strided_slice/stack_1"
      op: "Const"
      attr {
        key: "_output_shapes"
        value {
          list {
            shape {
              dim {
                size: 1
              }
            }
          }
        }
      }
      attr {
        key: "dtype"
        value {
          type: DT_INT32
        }
      }
      attr {
        key: "value"
        value {
          tensor {
            dtype: DT_INT32
            tensor_shape {
              dim {
                size: 1
              }
            }
            int_val: 1
          }
        }
      }
    }
    node {
      name: "linear/linear_model/linear_model/batter4_HitRate/strided_slice/stack_2"
      op: "Const"
      attr {
        key: "_output_shapes"
        value {
          list {
            shape {
              dim {
                size: 1
              }
            }
          }
        }
      }
      attr {
        key: "dtype"
        value {
          type: DT_INT32
        }
      }
      attr {
        key: "value"
        value {
          tensor {
            dtype: DT_INT32
            tensor_shape {
              dim {
                size: 1
              }
            }
            int_val: 1
          }
        }
      }
    }
    node {
      name: "linear/linear_model/linear_model/batter4_HitRate/strided_slice"
      op: "StridedSlice"
      input: "linear/linear_model/linear_model/batter4_HitRate/Shape"
      input: "linear/linear_model/linear_model/batter4_HitRate/strided_slice/stack"
      input: "linear/linear_model/linear_model/batter4_HitRate/strided_slice/stack_1"
      input: "linear/linear_model/linear_model/batter4_HitRate/strided_slice/stack_2"
      attr {
        key: "Index"
        value {
          type: DT_INT32
        }
      }
      attr {
        key: "T"
        value {
          type: DT_INT32
        }
      }
      attr {
        key: "_output_shapes"
        value {
          list {
            shape {
            }
          }
        }
      }
      attr {
        key: "begin_mask"
        value {
          i: 0
        }
      }
      attr {
        key: "ellipsis_mask"
        value {
          i: 0
        }
      }
      attr {
        key: "end_mask"
        value {
          i: 0
        }
      }
      attr {
        key: "new_axis_mask"
        value {
          i: 0
        }
      }
      attr {
        key: "shrink_axis_mask"
        value {
          i: 1
        }
      }
    }
    node {
      name: "linear/linear_model/linear_model/batter4_HitRate/Reshape/shape/1"
      op: "Const"
      attr {
        key: "_output_shapes"
        value {
          list {
            shape {
            }
          }
        }
      }
      attr {
        key: "dtype"
        value {
          type: DT_INT32
        }
      }
      attr {
        key: "value"
        value {
          tensor {
            dtype: DT_INT32
            tensor_shape {
            }
            int_val: 1
          }
        }
      }
    }
    node {
      name: "linear/linear_model/linear_model/batter4_HitRate/Reshape/shape"
      op: "Pack"
      input: "linear/linear_model/linear_model/batter4_HitRate/strided_slice"
      input: "linear/linear_model/linear_model/batter4_HitRate/Reshape/shape/1"
      attr {
        key: "N"
        value {
          i: 2
        }
      }
      attr {
        key: "T"
        value {
          type: DT_INT32
        }
      }
      attr {
        key: "_output_shapes"
        value {
          list {
            shape {
              dim {
                size: 2
              }
            }
          }
        }
      }
      attr {
        key: "axis"
        value {
          i: 0
        }
      }
    }
    node {
      name: "linear/linear_model/linear_model/batter4_HitRate/Reshape"
      op: "Reshape"
      input: "ParseExample/ParseExample:3"
      input: "linear/linear_model/linear_model/batter4_HitRate/Reshape/shape"
      attr {
        key: "T"
        value {
          type: DT_FLOAT
        }
      }
      attr {
        key: "Tshape"
        value {
          type: DT_INT32
        }
      }
      attr {
        key: "_output_shapes"
        value {
          list {
            shape {
              dim {
                size: -1
              }
              dim {
                size: 1
              }
            }
          }
        }
      }
    }
    node {
      name: "linear/linear_model/batter4_HitRate/weights/ReadVariableOp"
      op: "ReadVariableOp"
      input: "linear/linear_model/batter4_HitRate/weights/part_0"
      attr {
        key: "_output_shapes"
        value {
          list {
            shape {
              dim {
                size: 1
              }
              dim {
                size: 1
              }
            }
          }
        }
      }
      attr {
        key: "dtype"
        value {
          type: DT_FLOAT
        }
      }
    }
    node {
      name: "linear/linear_model/batter4_HitRate/weights"
      op: "Identity"
      input: "linear/linear_model/batter4_HitRate/weights/ReadVariableOp"
      attr {
        key: "T"
        value {
          type: DT_FLOAT
        }
      }
      attr {
        key: "_output_shapes"
        value {
          list {
            shape {
              dim {
                size: 1
              }
              dim {
                size: 1
              }
            }
          }
        }
      }
    }
    node {
      name: "linear/linear_model/linear_model/batter4_HitRate/weighted_sum"
      op: "MatMul"
      input: "linear/linear_model/linear_model/batter4_HitRate/Reshape"
      input: "linear/linear_model/batter4_HitRate/weights"
      attr {
        key: "T"
        value {
          type: DT_FLOAT
        }
      }
      attr {
        key: "_output_shapes"
        value {
          list {
            shape {
              dim {
                size: -1
              }
              dim {
                size: 1
              }
            }
          }
        }
      }
      attr {
        key: "transpose_a"
        value {
          b: false
        }
      }
      attr {
        key: "transpose_b"
        value {
          b: false
        }
      }
    }
    node {
      name: "linear/linear_model/batter8_Game/weights/part_0/Initializer/zeros"
      op: "Const"
      attr {
        key: "_class"
        value {
          list {
            s: "loc:@linear/linear_model/batter8_Game/weights/part_0"
          }
        }
      }
      attr {
        key: "_output_shapes"
        value {
          list {
            shape {
              dim {
                size: 1
              }
              dim {
                size: 1
              }
            }
          }
        }
      }
      attr {
        key: "dtype"
        value {
          type: DT_FLOAT
        }
      }
      attr {
        key: "value"
        value {
          tensor {
            dtype: DT_FLOAT
            tensor_shape {
              dim {
                size: 1
              }
              dim {
                size: 1
              }
            }
            float_val: 0.0
          }
        }
      }
    }
    node {
      name: "linear/linear_model/batter8_Game/weights/part_0"
      op: "VarHandleOp"
      attr {
        key: "_class"
        value {
          list {
            s: "loc:@linear/linear_model/batter8_Game/weights/part_0"
          }
        }
      }
      attr {
        key: "_output_shapes"
        value {
          list {
            shape {
            }
          }
        }
      }
      attr {
        key: "container"
        value {
          s: ""
        }
      }
      attr {
        key: "dtype"
        value {
          type: DT_FLOAT
        }
      }
      attr {
        key: "shape"
        value {
          shape {
            dim {
              size: 1
            }
            dim {
              size: 1
            }
          }
        }
      }
      attr {
        key: "shared_name"
        value {
          s: "linear/linear_model/batter8_Game/weights/part_0"
        }
      }
    }
    node {
      name: "linear/linear_model/batter8_Game/weights/part_0/IsInitialized/VarIsInitializedOp"
      op: "VarIsInitializedOp"
      input: "linear/linear_model/batter8_Game/weights/part_0"
      attr {
        key: "_output_shapes"
        value {
          list {
            shape {
            }
          }
        }
      }
    }
    node {
      name: "linear/linear_model/batter8_Game/weights/part_0/Assign"
      op: "AssignVariableOp"
      input: "linear/linear_model/batter8_Game/weights/part_0"
      input: "linear/linear_model/batter8_Game/weights/part_0/Initializer/zeros"
      attr {
        key: "_class"
        value {
          list {
            s: "loc:@linear/linear_model/batter8_Game/weights/part_0"
          }
        }
      }
      attr {
        key: "dtype"
        value {
          type: DT_FLOAT
        }
      }
    }
    node {
      name: "linear/linear_model/batter8_Game/weights/part_0/Read/ReadVariableOp"
      op: "ReadVariableOp"
      input: "linear/linear_model/batter8_Game/weights/part_0"
      attr {
        key: "_class"
        value {
          list {
            s: "loc:@linear/linear_model/batter8_Game/weights/part_0"
          }
        }
      }
      attr {
        key: "_output_shapes"
        value {
          list {
            shape {
              dim {
                size: 1
              }
              dim {
                size: 1
              }
            }
          }
        }
      }
      attr {
        key: "dtype"
        value {
          type: DT_FLOAT
        }
      }
    }
    node {
      name: "linear/linear_model/linear_model/batter8_Game/Shape"
      op: "Shape"
      input: "ParseExample/ParseExample:4"
      attr {
        key: "T"
        value {
          type: DT_FLOAT
        }
      }
      attr {
        key: "_output_shapes"
        value {
          list {
            shape {
              dim {
                size: 2
              }
            }
          }
        }
      }
      attr {
        key: "out_type"
        value {
          type: DT_INT32
        }
      }
    }
    node {
      name: "linear/linear_model/linear_model/batter8_Game/strided_slice/stack"
      op: "Const"
      attr {
        key: "_output_shapes"
        value {
          list {
            shape {
              dim {
                size: 1
              }
            }
          }
        }
      }
      attr {
        key: "dtype"
        value {
          type: DT_INT32
        }
      }
      attr {
        key: "value"
        value {
          tensor {
            dtype: DT_INT32
            tensor_shape {
              dim {
                size: 1
              }
            }
            int_val: 0
          }
        }
      }
    }
    node {
      name: "linear/linear_model/linear_model/batter8_Game/strided_slice/stack_1"
      op: "Const"
      attr {
        key: "_output_shapes"
        value {
          list {
            shape {
              dim {
                size: 1
              }
            }
          }
        }
      }
      attr {
        key: "dtype"
        value {
          type: DT_INT32
        }
      }
      attr {
        key: "value"
        value {
          tensor {
            dtype: DT_INT32
            tensor_shape {
              dim {
                size: 1
              }
            }
            int_val: 1
          }
        }
      }
    }
    node {
      name: "linear/linear_model/linear_model/batter8_Game/strided_slice/stack_2"
      op: "Const"
      attr {
        key: "_output_shapes"
        value {
          list {
            shape {
              dim {
                size: 1
              }
            }
          }
        }
      }
      attr {
        key: "dtype"
        value {
          type: DT_INT32
        }
      }
      attr {
        key: "value"
        value {
          tensor {
            dtype: DT_INT32
            tensor_shape {
              dim {
                size: 1
              }
            }
            int_val: 1
          }
        }
      }
    }
    node {
      name: "linear/linear_model/linear_model/batter8_Game/strided_slice"
      op: "StridedSlice"
      input: "linear/linear_model/linear_model/batter8_Game/Shape"
      input: "linear/linear_model/linear_model/batter8_Game/strided_slice/stack"
      input: "linear/linear_model/linear_model/batter8_Game/strided_slice/stack_1"
      input: "linear/linear_model/linear_model/batter8_Game/strided_slice/stack_2"
      attr {
        key: "Index"
        value {
          type: DT_INT32
        }
      }
      attr {
        key: "T"
        value {
          type: DT_INT32
        }
      }
      attr {
        key: "_output_shapes"
        value {
          list {
            shape {
            }
          }
        }
      }
      attr {
        key: "begin_mask"
        value {
          i: 0
        }
      }
      attr {
        key: "ellipsis_mask"
        value {
          i: 0
        }
      }
      attr {
        key: "end_mask"
        value {
          i: 0
        }
      }
      attr {
        key: "new_axis_mask"
        value {
          i: 0
        }
      }
      attr {
        key: "shrink_axis_mask"
        value {
          i: 1
        }
      }
    }
    node {
      name: "linear/linear_model/linear_model/batter8_Game/Reshape/shape/1"
      op: "Const"
      attr {
        key: "_output_shapes"
        value {
          list {
            shape {
            }
          }
        }
      }
      attr {
        key: "dtype"
        value {
          type: DT_INT32
        }
      }
      attr {
        key: "value"
        value {
          tensor {
            dtype: DT_INT32
            tensor_shape {
            }
            int_val: 1
          }
        }
      }
    }
    node {
      name: "linear/linear_model/linear_model/batter8_Game/Reshape/shape"
      op: "Pack"
      input: "linear/linear_model/linear_model/batter8_Game/strided_slice"
      input: "linear/linear_model/linear_model/batter8_Game/Reshape/shape/1"
      attr {
        key: "N"
        value {
          i: 2
        }
      }
      attr {
        key: "T"
        value {
          type: DT_INT32
        }
      }
      attr {
        key: "_output_shapes"
        value {
          list {
            shape {
              dim {
                size: 2
              }
            }
          }
        }
      }
      attr {
        key: "axis"
        value {
          i: 0
        }
      }
    }
    node {
      name: "linear/linear_model/linear_model/batter8_Game/Reshape"
      op: "Reshape"
      input: "ParseExample/ParseExample:4"
      input: "linear/linear_model/linear_model/batter8_Game/Reshape/shape"
      attr {
        key: "T"
        value {
          type: DT_FLOAT
        }
      }
      attr {
        key: "Tshape"
        value {
          type: DT_INT32
        }
      }
      attr {
        key: "_output_shapes"
        value {
          list {
            shape {
              dim {
                size: -1
              }
              dim {
                size: 1
              }
            }
          }
        }
      }
    }
    node {
      name: "linear/linear_model/batter8_Game/weights/ReadVariableOp"
      op: "ReadVariableOp"
      input: "linear/linear_model/batter8_Game/weights/part_0"
      attr {
        key: "_output_shapes"
        value {
          list {
            shape {
              dim {
                size: 1
              }
              dim {
                size: 1
              }
            }
          }
        }
      }
      attr {
        key: "dtype"
        value {
          type: DT_FLOAT
        }
      }
    }
    node {
      name: "linear/linear_model/batter8_Game/weights"
      op: "Identity"
      input: "linear/linear_model/batter8_Game/weights/ReadVariableOp"
      attr {
        key: "T"
        value {
          type: DT_FLOAT
        }
      }
      attr {
        key: "_output_shapes"
        value {
          list {
            shape {
              dim {
                size: 1
              }
              dim {
                size: 1
              }
            }
          }
        }
      }
    }
    node {
      name: "linear/linear_model/linear_model/batter8_Game/weighted_sum"
      op: "MatMul"
      input: "linear/linear_model/linear_model/batter8_Game/Reshape"
      input: "linear/linear_model/batter8_Game/weights"
      attr {
        key: "T"
        value {
          type: DT_FLOAT
        }
      }
      attr {
        key: "_output_shapes"
        value {
          list {
            shape {
              dim {
                size: -1
              }
              dim {
                size: 1
              }
            }
          }
        }
      }
      attr {
        key: "transpose_a"
        value {
          b: false
        }
      }
      attr {
        key: "transpose_b"
        value {
          b: false
        }
      }
    }
    node {
      name: "linear/linear_model/batter8_HitRate/weights/part_0/Initializer/zeros"
      op: "Const"
      attr {
        key: "_class"
        value {
          list {
            s: "loc:@linear/linear_model/batter8_HitRate/weights/part_0"
          }
        }
      }
      attr {
        key: "_output_shapes"
        value {
          list {
            shape {
              dim {
                size: 1
              }
              dim {
                size: 1
              }
            }
          }
        }
      }
      attr {
        key: "dtype"
        value {
          type: DT_FLOAT
        }
      }
      attr {
        key: "value"
        value {
          tensor {
            dtype: DT_FLOAT
            tensor_shape {
              dim {
                size: 1
              }
              dim {
                size: 1
              }
            }
            float_val: 0.0
          }
        }
      }
    }
    node {
      name: "linear/linear_model/batter8_HitRate/weights/part_0"
      op: "VarHandleOp"
      attr {
        key: "_class"
        value {
          list {
            s: "loc:@linear/linear_model/batter8_HitRate/weights/part_0"
          }
        }
      }
      attr {
        key: "_output_shapes"
        value {
          list {
            shape {
            }
          }
        }
      }
      attr {
        key: "container"
        value {
          s: ""
        }
      }
      attr {
        key: "dtype"
        value {
          type: DT_FLOAT
        }
      }
      attr {
        key: "shape"
        value {
          shape {
            dim {
              size: 1
            }
            dim {
              size: 1
            }
          }
        }
      }
      attr {
        key: "shared_name"
        value {
          s: "linear/linear_model/batter8_HitRate/weights/part_0"
        }
      }
    }
    node {
      name: "linear/linear_model/batter8_HitRate/weights/part_0/IsInitialized/VarIsInitializedOp"
      op: "VarIsInitializedOp"
      input: "linear/linear_model/batter8_HitRate/weights/part_0"
      attr {
        key: "_output_shapes"
        value {
          list {
            shape {
            }
          }
        }
      }
    }
    node {
      name: "linear/linear_model/batter8_HitRate/weights/part_0/Assign"
      op: "AssignVariableOp"
      input: "linear/linear_model/batter8_HitRate/weights/part_0"
      input: "linear/linear_model/batter8_HitRate/weights/part_0/Initializer/zeros"
      attr {
        key: "_class"
        value {
          list {
            s: "loc:@linear/linear_model/batter8_HitRate/weights/part_0"
          }
        }
      }
      attr {
        key: "dtype"
        value {
          type: DT_FLOAT
        }
      }
    }
    node {
      name: "linear/linear_model/batter8_HitRate/weights/part_0/Read/ReadVariableOp"
      op: "ReadVariableOp"
      input: "linear/linear_model/batter8_HitRate/weights/part_0"
      attr {
        key: "_class"
        value {
          list {
            s: "loc:@linear/linear_model/batter8_HitRate/weights/part_0"
          }
        }
      }
      attr {
        key: "_output_shapes"
        value {
          list {
            shape {
              dim {
                size: 1
              }
              dim {
                size: 1
              }
            }
          }
        }
      }
      attr {
        key: "dtype"
        value {
          type: DT_FLOAT
        }
      }
    }
    node {
      name: "linear/linear_model/linear_model/batter8_HitRate/Shape"
      op: "Shape"
      input: "ParseExample/ParseExample:5"
      attr {
        key: "T"
        value {
          type: DT_FLOAT
        }
      }
      attr {
        key: "_output_shapes"
        value {
          list {
            shape {
              dim {
                size: 2
              }
            }
          }
        }
      }
      attr {
        key: "out_type"
        value {
          type: DT_INT32
        }
      }
    }
    node {
      name: "linear/linear_model/linear_model/batter8_HitRate/strided_slice/stack"
      op: "Const"
      attr {
        key: "_output_shapes"
        value {
          list {
            shape {
              dim {
                size: 1
              }
            }
          }
        }
      }
      attr {
        key: "dtype"
        value {
          type: DT_INT32
        }
      }
      attr {
        key: "value"
        value {
          tensor {
            dtype: DT_INT32
            tensor_shape {
              dim {
                size: 1
              }
            }
            int_val: 0
          }
        }
      }
    }
    node {
      name: "linear/linear_model/linear_model/batter8_HitRate/strided_slice/stack_1"
      op: "Const"
      attr {
        key: "_output_shapes"
        value {
          list {
            shape {
              dim {
                size: 1
              }
            }
          }
        }
      }
      attr {
        key: "dtype"
        value {
          type: DT_INT32
        }
      }
      attr {
        key: "value"
        value {
          tensor {
            dtype: DT_INT32
            tensor_shape {
              dim {
                size: 1
              }
            }
            int_val: 1
          }
        }
      }
    }
    node {
      name: "linear/linear_model/linear_model/batter8_HitRate/strided_slice/stack_2"
      op: "Const"
      attr {
        key: "_output_shapes"
        value {
          list {
            shape {
              dim {
                size: 1
              }
            }
          }
        }
      }
      attr {
        key: "dtype"
        value {
          type: DT_INT32
        }
      }
      attr {
        key: "value"
        value {
          tensor {
            dtype: DT_INT32
            tensor_shape {
              dim {
                size: 1
              }
            }
            int_val: 1
          }
        }
      }
    }
    node {
      name: "linear/linear_model/linear_model/batter8_HitRate/strided_slice"
      op: "StridedSlice"
      input: "linear/linear_model/linear_model/batter8_HitRate/Shape"
      input: "linear/linear_model/linear_model/batter8_HitRate/strided_slice/stack"
      input: "linear/linear_model/linear_model/batter8_HitRate/strided_slice/stack_1"
      input: "linear/linear_model/linear_model/batter8_HitRate/strided_slice/stack_2"
      attr {
        key: "Index"
        value {
          type: DT_INT32
        }
      }
      attr {
        key: "T"
        value {
          type: DT_INT32
        }
      }
      attr {
        key: "_output_shapes"
        value {
          list {
            shape {
            }
          }
        }
      }
      attr {
        key: "begin_mask"
        value {
          i: 0
        }
      }
      attr {
        key: "ellipsis_mask"
        value {
          i: 0
        }
      }
      attr {
        key: "end_mask"
        value {
          i: 0
        }
      }
      attr {
        key: "new_axis_mask"
        value {
          i: 0
        }
      }
      attr {
        key: "shrink_axis_mask"
        value {
          i: 1
        }
      }
    }
    node {
      name: "linear/linear_model/linear_model/batter8_HitRate/Reshape/shape/1"
      op: "Const"
      attr {
        key: "_output_shapes"
        value {
          list {
            shape {
            }
          }
        }
      }
      attr {
        key: "dtype"
        value {
          type: DT_INT32
        }
      }
      attr {
        key: "value"
        value {
          tensor {
            dtype: DT_INT32
            tensor_shape {
            }
            int_val: 1
          }
        }
      }
    }
    node {
      name: "linear/linear_model/linear_model/batter8_HitRate/Reshape/shape"
      op: "Pack"
      input: "linear/linear_model/linear_model/batter8_HitRate/strided_slice"
      input: "linear/linear_model/linear_model/batter8_HitRate/Reshape/shape/1"
      attr {
        key: "N"
        value {
          i: 2
        }
      }
      attr {
        key: "T"
        value {
          type: DT_INT32
        }
      }
      attr {
        key: "_output_shapes"
        value {
          list {
            shape {
              dim {
                size: 2
              }
            }
          }
        }
      }
      attr {
        key: "axis"
        value {
          i: 0
        }
      }
    }
    node {
      name: "linear/linear_model/linear_model/batter8_HitRate/Reshape"
      op: "Reshape"
      input: "ParseExample/ParseExample:5"
      input: "linear/linear_model/linear_model/batter8_HitRate/Reshape/shape"
      attr {
        key: "T"
        value {
          type: DT_FLOAT
        }
      }
      attr {
        key: "Tshape"
        value {
          type: DT_INT32
        }
      }
      attr {
        key: "_output_shapes"
        value {
          list {
            shape {
              dim {
                size: -1
              }
              dim {
                size: 1
              }
            }
          }
        }
      }
    }
    node {
      name: "linear/linear_model/batter8_HitRate/weights/ReadVariableOp"
      op: "ReadVariableOp"
      input: "linear/linear_model/batter8_HitRate/weights/part_0"
      attr {
        key: "_output_shapes"
        value {
          list {
            shape {
              dim {
                size: 1
              }
              dim {
                size: 1
              }
            }
          }
        }
      }
      attr {
        key: "dtype"
        value {
          type: DT_FLOAT
        }
      }
    }
    node {
      name: "linear/linear_model/batter8_HitRate/weights"
      op: "Identity"
      input: "linear/linear_model/batter8_HitRate/weights/ReadVariableOp"
      attr {
        key: "T"
        value {
          type: DT_FLOAT
        }
      }
      attr {
        key: "_output_shapes"
        value {
          list {
            shape {
              dim {
                size: 1
              }
              dim {
                size: 1
              }
            }
          }
        }
      }
    }
    node {
      name: "linear/linear_model/linear_model/batter8_HitRate/weighted_sum"
      op: "MatMul"
      input: "linear/linear_model/linear_model/batter8_HitRate/Reshape"
      input: "linear/linear_model/batter8_HitRate/weights"
      attr {
        key: "T"
        value {
          type: DT_FLOAT
        }
      }
      attr {
        key: "_output_shapes"
        value {
          list {
            shape {
              dim {
                size: -1
              }
              dim {
                size: 1
              }
            }
          }
        }
      }
      attr {
        key: "transpose_a"
        value {
          b: false
        }
      }
      attr {
        key: "transpose_b"
        value {
          b: false
        }
      }
    }
    node {
      name: "linear/linear_model/batter9_Game/weights/part_0/Initializer/zeros"
      op: "Const"
      attr {
        key: "_class"
        value {
          list {
            s: "loc:@linear/linear_model/batter9_Game/weights/part_0"
          }
        }
      }
      attr {
        key: "_output_shapes"
        value {
          list {
            shape {
              dim {
                size: 1
              }
              dim {
                size: 1
              }
            }
          }
        }
      }
      attr {
        key: "dtype"
        value {
          type: DT_FLOAT
        }
      }
      attr {
        key: "value"
        value {
          tensor {
            dtype: DT_FLOAT
            tensor_shape {
              dim {
                size: 1
              }
              dim {
                size: 1
              }
            }
            float_val: 0.0
          }
        }
      }
    }
    node {
      name: "linear/linear_model/batter9_Game/weights/part_0"
      op: "VarHandleOp"
      attr {
        key: "_class"
        value {
          list {
            s: "loc:@linear/linear_model/batter9_Game/weights/part_0"
          }
        }
      }
      attr {
        key: "_output_shapes"
        value {
          list {
            shape {
            }
          }
        }
      }
      attr {
        key: "container"
        value {
          s: ""
        }
      }
      attr {
        key: "dtype"
        value {
          type: DT_FLOAT
        }
      }
      attr {
        key: "shape"
        value {
          shape {
            dim {
              size: 1
            }
            dim {
              size: 1
            }
          }
        }
      }
      attr {
        key: "shared_name"
        value {
          s: "linear/linear_model/batter9_Game/weights/part_0"
        }
      }
    }
    node {
      name: "linear/linear_model/batter9_Game/weights/part_0/IsInitialized/VarIsInitializedOp"
      op: "VarIsInitializedOp"
      input: "linear/linear_model/batter9_Game/weights/part_0"
      attr {
        key: "_output_shapes"
        value {
          list {
            shape {
            }
          }
        }
      }
    }
    node {
      name: "linear/linear_model/batter9_Game/weights/part_0/Assign"
      op: "AssignVariableOp"
      input: "linear/linear_model/batter9_Game/weights/part_0"
      input: "linear/linear_model/batter9_Game/weights/part_0/Initializer/zeros"
      attr {
        key: "_class"
        value {
          list {
            s: "loc:@linear/linear_model/batter9_Game/weights/part_0"
          }
        }
      }
      attr {
        key: "dtype"
        value {
          type: DT_FLOAT
        }
      }
    }
    node {
      name: "linear/linear_model/batter9_Game/weights/part_0/Read/ReadVariableOp"
      op: "ReadVariableOp"
      input: "linear/linear_model/batter9_Game/weights/part_0"
      attr {
        key: "_class"
        value {
          list {
            s: "loc:@linear/linear_model/batter9_Game/weights/part_0"
          }
        }
      }
      attr {
        key: "_output_shapes"
        value {
          list {
            shape {
              dim {
                size: 1
              }
              dim {
                size: 1
              }
            }
          }
        }
      }
      attr {
        key: "dtype"
        value {
          type: DT_FLOAT
        }
      }
    }
    node {
      name: "linear/linear_model/linear_model/batter9_Game/Shape"
      op: "Shape"
      input: "ParseExample/ParseExample:6"
      attr {
        key: "T"
        value {
          type: DT_FLOAT
        }
      }
      attr {
        key: "_output_shapes"
        value {
          list {
            shape {
              dim {
                size: 2
              }
            }
          }
        }
      }
      attr {
        key: "out_type"
        value {
          type: DT_INT32
        }
      }
    }
    node {
      name: "linear/linear_model/linear_model/batter9_Game/strided_slice/stack"
      op: "Const"
      attr {
        key: "_output_shapes"
        value {
          list {
            shape {
              dim {
                size: 1
              }
            }
          }
        }
      }
      attr {
        key: "dtype"
        value {
          type: DT_INT32
        }
      }
      attr {
        key: "value"
        value {
          tensor {
            dtype: DT_INT32
            tensor_shape {
              dim {
                size: 1
              }
            }
            int_val: 0
          }
        }
      }
    }
    node {
      name: "linear/linear_model/linear_model/batter9_Game/strided_slice/stack_1"
      op: "Const"
      attr {
        key: "_output_shapes"
        value {
          list {
            shape {
              dim {
                size: 1
              }
            }
          }
        }
      }
      attr {
        key: "dtype"
        value {
          type: DT_INT32
        }
      }
      attr {
        key: "value"
        value {
          tensor {
            dtype: DT_INT32
            tensor_shape {
              dim {
                size: 1
              }
            }
            int_val: 1
          }
        }
      }
    }
    node {
      name: "linear/linear_model/linear_model/batter9_Game/strided_slice/stack_2"
      op: "Const"
      attr {
        key: "_output_shapes"
        value {
          list {
            shape {
              dim {
                size: 1
              }
            }
          }
        }
      }
      attr {
        key: "dtype"
        value {
          type: DT_INT32
        }
      }
      attr {
        key: "value"
        value {
          tensor {
            dtype: DT_INT32
            tensor_shape {
              dim {
                size: 1
              }
            }
            int_val: 1
          }
        }
      }
    }
    node {
      name: "linear/linear_model/linear_model/batter9_Game/strided_slice"
      op: "StridedSlice"
      input: "linear/linear_model/linear_model/batter9_Game/Shape"
      input: "linear/linear_model/linear_model/batter9_Game/strided_slice/stack"
      input: "linear/linear_model/linear_model/batter9_Game/strided_slice/stack_1"
      input: "linear/linear_model/linear_model/batter9_Game/strided_slice/stack_2"
      attr {
        key: "Index"
        value {
          type: DT_INT32
        }
      }
      attr {
        key: "T"
        value {
          type: DT_INT32
        }
      }
      attr {
        key: "_output_shapes"
        value {
          list {
            shape {
            }
          }
        }
      }
      attr {
        key: "begin_mask"
        value {
          i: 0
        }
      }
      attr {
        key: "ellipsis_mask"
        value {
          i: 0
        }
      }
      attr {
        key: "end_mask"
        value {
          i: 0
        }
      }
      attr {
        key: "new_axis_mask"
        value {
          i: 0
        }
      }
      attr {
        key: "shrink_axis_mask"
        value {
          i: 1
        }
      }
    }
    node {
      name: "linear/linear_model/linear_model/batter9_Game/Reshape/shape/1"
      op: "Const"
      attr {
        key: "_output_shapes"
        value {
          list {
            shape {
            }
          }
        }
      }
      attr {
        key: "dtype"
        value {
          type: DT_INT32
        }
      }
      attr {
        key: "value"
        value {
          tensor {
            dtype: DT_INT32
            tensor_shape {
            }
            int_val: 1
          }
        }
      }
    }
    node {
      name: "linear/linear_model/linear_model/batter9_Game/Reshape/shape"
      op: "Pack"
      input: "linear/linear_model/linear_model/batter9_Game/strided_slice"
      input: "linear/linear_model/linear_model/batter9_Game/Reshape/shape/1"
      attr {
        key: "N"
        value {
          i: 2
        }
      }
      attr {
        key: "T"
        value {
          type: DT_INT32
        }
      }
      attr {
        key: "_output_shapes"
        value {
          list {
            shape {
              dim {
                size: 2
              }
            }
          }
        }
      }
      attr {
        key: "axis"
        value {
          i: 0
        }
      }
    }
    node {
      name: "linear/linear_model/linear_model/batter9_Game/Reshape"
      op: "Reshape"
      input: "ParseExample/ParseExample:6"
      input: "linear/linear_model/linear_model/batter9_Game/Reshape/shape"
      attr {
        key: "T"
        value {
          type: DT_FLOAT
        }
      }
      attr {
        key: "Tshape"
        value {
          type: DT_INT32
        }
      }
      attr {
        key: "_output_shapes"
        value {
          list {
            shape {
              dim {
                size: -1
              }
              dim {
                size: 1
              }
            }
          }
        }
      }
    }
    node {
      name: "linear/linear_model/batter9_Game/weights/ReadVariableOp"
      op: "ReadVariableOp"
      input: "linear/linear_model/batter9_Game/weights/part_0"
      attr {
        key: "_output_shapes"
        value {
          list {
            shape {
              dim {
                size: 1
              }
              dim {
                size: 1
              }
            }
          }
        }
      }
      attr {
        key: "dtype"
        value {
          type: DT_FLOAT
        }
      }
    }
    node {
      name: "linear/linear_model/batter9_Game/weights"
      op: "Identity"
      input: "linear/linear_model/batter9_Game/weights/ReadVariableOp"
      attr {
        key: "T"
        value {
          type: DT_FLOAT
        }
      }
      attr {
        key: "_output_shapes"
        value {
          list {
            shape {
              dim {
                size: 1
              }
              dim {
                size: 1
              }
            }
          }
        }
      }
    }
    node {
      name: "linear/linear_model/linear_model/batter9_Game/weighted_sum"
      op: "MatMul"
      input: "linear/linear_model/linear_model/batter9_Game/Reshape"
      input: "linear/linear_model/batter9_Game/weights"
      attr {
        key: "T"
        value {
          type: DT_FLOAT
        }
      }
      attr {
        key: "_output_shapes"
        value {
          list {
            shape {
              dim {
                size: -1
              }
              dim {
                size: 1
              }
            }
          }
        }
      }
      attr {
        key: "transpose_a"
        value {
          b: false
        }
      }
      attr {
        key: "transpose_b"
        value {
          b: false
        }
      }
    }
    node {
      name: "linear/linear_model/batter9_HitRate/weights/part_0/Initializer/zeros"
      op: "Const"
      attr {
        key: "_class"
        value {
          list {
            s: "loc:@linear/linear_model/batter9_HitRate/weights/part_0"
          }
        }
      }
      attr {
        key: "_output_shapes"
        value {
          list {
            shape {
              dim {
                size: 1
              }
              dim {
                size: 1
              }
            }
          }
        }
      }
      attr {
        key: "dtype"
        value {
          type: DT_FLOAT
        }
      }
      attr {
        key: "value"
        value {
          tensor {
            dtype: DT_FLOAT
            tensor_shape {
              dim {
                size: 1
              }
              dim {
                size: 1
              }
            }
            float_val: 0.0
          }
        }
      }
    }
    node {
      name: "linear/linear_model/batter9_HitRate/weights/part_0"
      op: "VarHandleOp"
      attr {
        key: "_class"
        value {
          list {
            s: "loc:@linear/linear_model/batter9_HitRate/weights/part_0"
          }
        }
      }
      attr {
        key: "_output_shapes"
        value {
          list {
            shape {
            }
          }
        }
      }
      attr {
        key: "container"
        value {
          s: ""
        }
      }
      attr {
        key: "dtype"
        value {
          type: DT_FLOAT
        }
      }
      attr {
        key: "shape"
        value {
          shape {
            dim {
              size: 1
            }
            dim {
              size: 1
            }
          }
        }
      }
      attr {
        key: "shared_name"
        value {
          s: "linear/linear_model/batter9_HitRate/weights/part_0"
        }
      }
    }
    node {
      name: "linear/linear_model/batter9_HitRate/weights/part_0/IsInitialized/VarIsInitializedOp"
      op: "VarIsInitializedOp"
      input: "linear/linear_model/batter9_HitRate/weights/part_0"
      attr {
        key: "_output_shapes"
        value {
          list {
            shape {
            }
          }
        }
      }
    }
    node {
      name: "linear/linear_model/batter9_HitRate/weights/part_0/Assign"
      op: "AssignVariableOp"
      input: "linear/linear_model/batter9_HitRate/weights/part_0"
      input: "linear/linear_model/batter9_HitRate/weights/part_0/Initializer/zeros"
      attr {
        key: "_class"
        value {
          list {
            s: "loc:@linear/linear_model/batter9_HitRate/weights/part_0"
          }
        }
      }
      attr {
        key: "dtype"
        value {
          type: DT_FLOAT
        }
      }
    }
    node {
      name: "linear/linear_model/batter9_HitRate/weights/part_0/Read/ReadVariableOp"
      op: "ReadVariableOp"
      input: "linear/linear_model/batter9_HitRate/weights/part_0"
      attr {
        key: "_class"
        value {
          list {
            s: "loc:@linear/linear_model/batter9_HitRate/weights/part_0"
          }
        }
      }
      attr {
        key: "_output_shapes"
        value {
          list {
            shape {
              dim {
                size: 1
              }
              dim {
                size: 1
              }
            }
          }
        }
      }
      attr {
        key: "dtype"
        value {
          type: DT_FLOAT
        }
      }
    }
    node {
      name: "linear/linear_model/linear_model/batter9_HitRate/Shape"
      op: "Shape"
      input: "ParseExample/ParseExample:7"
      attr {
        key: "T"
        value {
          type: DT_FLOAT
        }
      }
      attr {
        key: "_output_shapes"
        value {
          list {
            shape {
              dim {
                size: 2
              }
            }
          }
        }
      }
      attr {
        key: "out_type"
        value {
          type: DT_INT32
        }
      }
    }
    node {
      name: "linear/linear_model/linear_model/batter9_HitRate/strided_slice/stack"
      op: "Const"
      attr {
        key: "_output_shapes"
        value {
          list {
            shape {
              dim {
                size: 1
              }
            }
          }
        }
      }
      attr {
        key: "dtype"
        value {
          type: DT_INT32
        }
      }
      attr {
        key: "value"
        value {
          tensor {
            dtype: DT_INT32
            tensor_shape {
              dim {
                size: 1
              }
            }
            int_val: 0
          }
        }
      }
    }
    node {
      name: "linear/linear_model/linear_model/batter9_HitRate/strided_slice/stack_1"
      op: "Const"
      attr {
        key: "_output_shapes"
        value {
          list {
            shape {
              dim {
                size: 1
              }
            }
          }
        }
      }
      attr {
        key: "dtype"
        value {
          type: DT_INT32
        }
      }
      attr {
        key: "value"
        value {
          tensor {
            dtype: DT_INT32
            tensor_shape {
              dim {
                size: 1
              }
            }
            int_val: 1
          }
        }
      }
    }
    node {
      name: "linear/linear_model/linear_model/batter9_HitRate/strided_slice/stack_2"
      op: "Const"
      attr {
        key: "_output_shapes"
        value {
          list {
            shape {
              dim {
                size: 1
              }
            }
          }
        }
      }
      attr {
        key: "dtype"
        value {
          type: DT_INT32
        }
      }
      attr {
        key: "value"
        value {
          tensor {
            dtype: DT_INT32
            tensor_shape {
              dim {
                size: 1
              }
            }
            int_val: 1
          }
        }
      }
    }
    node {
      name: "linear/linear_model/linear_model/batter9_HitRate/strided_slice"
      op: "StridedSlice"
      input: "linear/linear_model/linear_model/batter9_HitRate/Shape"
      input: "linear/linear_model/linear_model/batter9_HitRate/strided_slice/stack"
      input: "linear/linear_model/linear_model/batter9_HitRate/strided_slice/stack_1"
      input: "linear/linear_model/linear_model/batter9_HitRate/strided_slice/stack_2"
      attr {
        key: "Index"
        value {
          type: DT_INT32
        }
      }
      attr {
        key: "T"
        value {
          type: DT_INT32
        }
      }
      attr {
        key: "_output_shapes"
        value {
          list {
            shape {
            }
          }
        }
      }
      attr {
        key: "begin_mask"
        value {
          i: 0
        }
      }
      attr {
        key: "ellipsis_mask"
        value {
          i: 0
        }
      }
      attr {
        key: "end_mask"
        value {
          i: 0
        }
      }
      attr {
        key: "new_axis_mask"
        value {
          i: 0
        }
      }
      attr {
        key: "shrink_axis_mask"
        value {
          i: 1
        }
      }
    }
    node {
      name: "linear/linear_model/linear_model/batter9_HitRate/Reshape/shape/1"
      op: "Const"
      attr {
        key: "_output_shapes"
        value {
          list {
            shape {
            }
          }
        }
      }
      attr {
        key: "dtype"
        value {
          type: DT_INT32
        }
      }
      attr {
        key: "value"
        value {
          tensor {
            dtype: DT_INT32
            tensor_shape {
            }
            int_val: 1
          }
        }
      }
    }
    node {
      name: "linear/linear_model/linear_model/batter9_HitRate/Reshape/shape"
      op: "Pack"
      input: "linear/linear_model/linear_model/batter9_HitRate/strided_slice"
      input: "linear/linear_model/linear_model/batter9_HitRate/Reshape/shape/1"
      attr {
        key: "N"
        value {
          i: 2
        }
      }
      attr {
        key: "T"
        value {
          type: DT_INT32
        }
      }
      attr {
        key: "_output_shapes"
        value {
          list {
            shape {
              dim {
                size: 2
              }
            }
          }
        }
      }
      attr {
        key: "axis"
        value {
          i: 0
        }
      }
    }
    node {
      name: "linear/linear_model/linear_model/batter9_HitRate/Reshape"
      op: "Reshape"
      input: "ParseExample/ParseExample:7"
      input: "linear/linear_model/linear_model/batter9_HitRate/Reshape/shape"
      attr {
        key: "T"
        value {
          type: DT_FLOAT
        }
      }
      attr {
        key: "Tshape"
        value {
          type: DT_INT32
        }
      }
      attr {
        key: "_output_shapes"
        value {
          list {
            shape {
              dim {
                size: -1
              }
              dim {
                size: 1
              }
            }
          }
        }
      }
    }
    node {
      name: "linear/linear_model/batter9_HitRate/weights/ReadVariableOp"
      op: "ReadVariableOp"
      input: "linear/linear_model/batter9_HitRate/weights/part_0"
      attr {
        key: "_output_shapes"
        value {
          list {
            shape {
              dim {
                size: 1
              }
              dim {
                size: 1
              }
            }
          }
        }
      }
      attr {
        key: "dtype"
        value {
          type: DT_FLOAT
        }
      }
    }
    node {
      name: "linear/linear_model/batter9_HitRate/weights"
      op: "Identity"
      input: "linear/linear_model/batter9_HitRate/weights/ReadVariableOp"
      attr {
        key: "T"
        value {
          type: DT_FLOAT
        }
      }
      attr {
        key: "_output_shapes"
        value {
          list {
            shape {
              dim {
                size: 1
              }
              dim {
                size: 1
              }
            }
          }
        }
      }
    }
    node {
      name: "linear/linear_model/linear_model/batter9_HitRate/weighted_sum"
      op: "MatMul"
      input: "linear/linear_model/linear_model/batter9_HitRate/Reshape"
      input: "linear/linear_model/batter9_HitRate/weights"
      attr {
        key: "T"
        value {
          type: DT_FLOAT
        }
      }
      attr {
        key: "_output_shapes"
        value {
          list {
            shape {
              dim {
                size: -1
              }
              dim {
                size: 1
              }
            }
          }
        }
      }
      attr {
        key: "transpose_a"
        value {
          b: false
        }
      }
      attr {
        key: "transpose_b"
        value {
          b: false
        }
      }
    }
    node {
      name: "linear/linear_model/pitcher1_ERA/weights/part_0/Initializer/zeros"
      op: "Const"
      attr {
        key: "_class"
        value {
          list {
            s: "loc:@linear/linear_model/pitcher1_ERA/weights/part_0"
          }
        }
      }
      attr {
        key: "_output_shapes"
        value {
          list {
            shape {
              dim {
                size: 1
              }
              dim {
                size: 1
              }
            }
          }
        }
      }
      attr {
        key: "dtype"
        value {
          type: DT_FLOAT
        }
      }
      attr {
        key: "value"
        value {
          tensor {
            dtype: DT_FLOAT
            tensor_shape {
              dim {
                size: 1
              }
              dim {
                size: 1
              }
            }
            float_val: 0.0
          }
        }
      }
    }
    node {
      name: "linear/linear_model/pitcher1_ERA/weights/part_0"
      op: "VarHandleOp"
      attr {
        key: "_class"
        value {
          list {
            s: "loc:@linear/linear_model/pitcher1_ERA/weights/part_0"
          }
        }
      }
      attr {
        key: "_output_shapes"
        value {
          list {
            shape {
            }
          }
        }
      }
      attr {
        key: "container"
        value {
          s: ""
        }
      }
      attr {
        key: "dtype"
        value {
          type: DT_FLOAT
        }
      }
      attr {
        key: "shape"
        value {
          shape {
            dim {
              size: 1
            }
            dim {
              size: 1
            }
          }
        }
      }
      attr {
        key: "shared_name"
        value {
          s: "linear/linear_model/pitcher1_ERA/weights/part_0"
        }
      }
    }
    node {
      name: "linear/linear_model/pitcher1_ERA/weights/part_0/IsInitialized/VarIsInitializedOp"
      op: "VarIsInitializedOp"
      input: "linear/linear_model/pitcher1_ERA/weights/part_0"
      attr {
        key: "_output_shapes"
        value {
          list {
            shape {
            }
          }
        }
      }
    }
    node {
      name: "linear/linear_model/pitcher1_ERA/weights/part_0/Assign"
      op: "AssignVariableOp"
      input: "linear/linear_model/pitcher1_ERA/weights/part_0"
      input: "linear/linear_model/pitcher1_ERA/weights/part_0/Initializer/zeros"
      attr {
        key: "_class"
        value {
          list {
            s: "loc:@linear/linear_model/pitcher1_ERA/weights/part_0"
          }
        }
      }
      attr {
        key: "dtype"
        value {
          type: DT_FLOAT
        }
      }
    }
    node {
      name: "linear/linear_model/pitcher1_ERA/weights/part_0/Read/ReadVariableOp"
      op: "ReadVariableOp"
      input: "linear/linear_model/pitcher1_ERA/weights/part_0"
      attr {
        key: "_class"
        value {
          list {
            s: "loc:@linear/linear_model/pitcher1_ERA/weights/part_0"
          }
        }
      }
      attr {
        key: "_output_shapes"
        value {
          list {
            shape {
              dim {
                size: 1
              }
              dim {
                size: 1
              }
            }
          }
        }
      }
      attr {
        key: "dtype"
        value {
          type: DT_FLOAT
        }
      }
    }
    node {
      name: "linear/linear_model/linear_model/pitcher1_ERA/Shape"
      op: "Shape"
      input: "ParseExample/ParseExample:8"
      attr {
        key: "T"
        value {
          type: DT_FLOAT
        }
      }
      attr {
        key: "_output_shapes"
        value {
          list {
            shape {
              dim {
                size: 2
              }
            }
          }
        }
      }
      attr {
        key: "out_type"
        value {
          type: DT_INT32
        }
      }
    }
    node {
      name: "linear/linear_model/linear_model/pitcher1_ERA/strided_slice/stack"
      op: "Const"
      attr {
        key: "_output_shapes"
        value {
          list {
            shape {
              dim {
                size: 1
              }
            }
          }
        }
      }
      attr {
        key: "dtype"
        value {
          type: DT_INT32
        }
      }
      attr {
        key: "value"
        value {
          tensor {
            dtype: DT_INT32
            tensor_shape {
              dim {
                size: 1
              }
            }
            int_val: 0
          }
        }
      }
    }
    node {
      name: "linear/linear_model/linear_model/pitcher1_ERA/strided_slice/stack_1"
      op: "Const"
      attr {
        key: "_output_shapes"
        value {
          list {
            shape {
              dim {
                size: 1
              }
            }
          }
        }
      }
      attr {
        key: "dtype"
        value {
          type: DT_INT32
        }
      }
      attr {
        key: "value"
        value {
          tensor {
            dtype: DT_INT32
            tensor_shape {
              dim {
                size: 1
              }
            }
            int_val: 1
          }
        }
      }
    }
    node {
      name: "linear/linear_model/linear_model/pitcher1_ERA/strided_slice/stack_2"
      op: "Const"
      attr {
        key: "_output_shapes"
        value {
          list {
            shape {
              dim {
                size: 1
              }
            }
          }
        }
      }
      attr {
        key: "dtype"
        value {
          type: DT_INT32
        }
      }
      attr {
        key: "value"
        value {
          tensor {
            dtype: DT_INT32
            tensor_shape {
              dim {
                size: 1
              }
            }
            int_val: 1
          }
        }
      }
    }
    node {
      name: "linear/linear_model/linear_model/pitcher1_ERA/strided_slice"
      op: "StridedSlice"
      input: "linear/linear_model/linear_model/pitcher1_ERA/Shape"
      input: "linear/linear_model/linear_model/pitcher1_ERA/strided_slice/stack"
      input: "linear/linear_model/linear_model/pitcher1_ERA/strided_slice/stack_1"
      input: "linear/linear_model/linear_model/pitcher1_ERA/strided_slice/stack_2"
      attr {
        key: "Index"
        value {
          type: DT_INT32
        }
      }
      attr {
        key: "T"
        value {
          type: DT_INT32
        }
      }
      attr {
        key: "_output_shapes"
        value {
          list {
            shape {
            }
          }
        }
      }
      attr {
        key: "begin_mask"
        value {
          i: 0
        }
      }
      attr {
        key: "ellipsis_mask"
        value {
          i: 0
        }
      }
      attr {
        key: "end_mask"
        value {
          i: 0
        }
      }
      attr {
        key: "new_axis_mask"
        value {
          i: 0
        }
      }
      attr {
        key: "shrink_axis_mask"
        value {
          i: 1
        }
      }
    }
    node {
      name: "linear/linear_model/linear_model/pitcher1_ERA/Reshape/shape/1"
      op: "Const"
      attr {
        key: "_output_shapes"
        value {
          list {
            shape {
            }
          }
        }
      }
      attr {
        key: "dtype"
        value {
          type: DT_INT32
        }
      }
      attr {
        key: "value"
        value {
          tensor {
            dtype: DT_INT32
            tensor_shape {
            }
            int_val: 1
          }
        }
      }
    }
    node {
      name: "linear/linear_model/linear_model/pitcher1_ERA/Reshape/shape"
      op: "Pack"
      input: "linear/linear_model/linear_model/pitcher1_ERA/strided_slice"
      input: "linear/linear_model/linear_model/pitcher1_ERA/Reshape/shape/1"
      attr {
        key: "N"
        value {
          i: 2
        }
      }
      attr {
        key: "T"
        value {
          type: DT_INT32
        }
      }
      attr {
        key: "_output_shapes"
        value {
          list {
            shape {
              dim {
                size: 2
              }
            }
          }
        }
      }
      attr {
        key: "axis"
        value {
          i: 0
        }
      }
    }
    node {
      name: "linear/linear_model/linear_model/pitcher1_ERA/Reshape"
      op: "Reshape"
      input: "ParseExample/ParseExample:8"
      input: "linear/linear_model/linear_model/pitcher1_ERA/Reshape/shape"
      attr {
        key: "T"
        value {
          type: DT_FLOAT
        }
      }
      attr {
        key: "Tshape"
        value {
          type: DT_INT32
        }
      }
      attr {
        key: "_output_shapes"
        value {
          list {
            shape {
              dim {
                size: -1
              }
              dim {
                size: 1
              }
            }
          }
        }
      }
    }
    node {
      name: "linear/linear_model/pitcher1_ERA/weights/ReadVariableOp"
      op: "ReadVariableOp"
      input: "linear/linear_model/pitcher1_ERA/weights/part_0"
      attr {
        key: "_output_shapes"
        value {
          list {
            shape {
              dim {
                size: 1
              }
              dim {
                size: 1
              }
            }
          }
        }
      }
      attr {
        key: "dtype"
        value {
          type: DT_FLOAT
        }
      }
    }
    node {
      name: "linear/linear_model/pitcher1_ERA/weights"
      op: "Identity"
      input: "linear/linear_model/pitcher1_ERA/weights/ReadVariableOp"
      attr {
        key: "T"
        value {
          type: DT_FLOAT
        }
      }
      attr {
        key: "_output_shapes"
        value {
          list {
            shape {
              dim {
                size: 1
              }
              dim {
                size: 1
              }
            }
          }
        }
      }
    }
    node {
      name: "linear/linear_model/linear_model/pitcher1_ERA/weighted_sum"
      op: "MatMul"
      input: "linear/linear_model/linear_model/pitcher1_ERA/Reshape"
      input: "linear/linear_model/pitcher1_ERA/weights"
      attr {
        key: "T"
        value {
          type: DT_FLOAT
        }
      }
      attr {
        key: "_output_shapes"
        value {
          list {
            shape {
              dim {
                size: -1
              }
              dim {
                size: 1
              }
            }
          }
        }
      }
      attr {
        key: "transpose_a"
        value {
          b: false
        }
      }
      attr {
        key: "transpose_b"
        value {
          b: false
        }
      }
    }
    node {
      name: "linear/linear_model/pitcher1_Game/weights/part_0/Initializer/zeros"
      op: "Const"
      attr {
        key: "_class"
        value {
          list {
            s: "loc:@linear/linear_model/pitcher1_Game/weights/part_0"
          }
        }
      }
      attr {
        key: "_output_shapes"
        value {
          list {
            shape {
              dim {
                size: 1
              }
              dim {
                size: 1
              }
            }
          }
        }
      }
      attr {
        key: "dtype"
        value {
          type: DT_FLOAT
        }
      }
      attr {
        key: "value"
        value {
          tensor {
            dtype: DT_FLOAT
            tensor_shape {
              dim {
                size: 1
              }
              dim {
                size: 1
              }
            }
            float_val: 0.0
          }
        }
      }
    }
    node {
      name: "linear/linear_model/pitcher1_Game/weights/part_0"
      op: "VarHandleOp"
      attr {
        key: "_class"
        value {
          list {
            s: "loc:@linear/linear_model/pitcher1_Game/weights/part_0"
          }
        }
      }
      attr {
        key: "_output_shapes"
        value {
          list {
            shape {
            }
          }
        }
      }
      attr {
        key: "container"
        value {
          s: ""
        }
      }
      attr {
        key: "dtype"
        value {
          type: DT_FLOAT
        }
      }
      attr {
        key: "shape"
        value {
          shape {
            dim {
              size: 1
            }
            dim {
              size: 1
            }
          }
        }
      }
      attr {
        key: "shared_name"
        value {
          s: "linear/linear_model/pitcher1_Game/weights/part_0"
        }
      }
    }
    node {
      name: "linear/linear_model/pitcher1_Game/weights/part_0/IsInitialized/VarIsInitializedOp"
      op: "VarIsInitializedOp"
      input: "linear/linear_model/pitcher1_Game/weights/part_0"
      attr {
        key: "_output_shapes"
        value {
          list {
            shape {
            }
          }
        }
      }
    }
    node {
      name: "linear/linear_model/pitcher1_Game/weights/part_0/Assign"
      op: "AssignVariableOp"
      input: "linear/linear_model/pitcher1_Game/weights/part_0"
      input: "linear/linear_model/pitcher1_Game/weights/part_0/Initializer/zeros"
      attr {
        key: "_class"
        value {
          list {
            s: "loc:@linear/linear_model/pitcher1_Game/weights/part_0"
          }
        }
      }
      attr {
        key: "dtype"
        value {
          type: DT_FLOAT
        }
      }
    }
    node {
      name: "linear/linear_model/pitcher1_Game/weights/part_0/Read/ReadVariableOp"
      op: "ReadVariableOp"
      input: "linear/linear_model/pitcher1_Game/weights/part_0"
      attr {
        key: "_class"
        value {
          list {
            s: "loc:@linear/linear_model/pitcher1_Game/weights/part_0"
          }
        }
      }
      attr {
        key: "_output_shapes"
        value {
          list {
            shape {
              dim {
                size: 1
              }
              dim {
                size: 1
              }
            }
          }
        }
      }
      attr {
        key: "dtype"
        value {
          type: DT_FLOAT
        }
      }
    }
    node {
      name: "linear/linear_model/linear_model/pitcher1_Game/Shape"
      op: "Shape"
      input: "ParseExample/ParseExample:9"
      attr {
        key: "T"
        value {
          type: DT_FLOAT
        }
      }
      attr {
        key: "_output_shapes"
        value {
          list {
            shape {
              dim {
                size: 2
              }
            }
          }
        }
      }
      attr {
        key: "out_type"
        value {
          type: DT_INT32
        }
      }
    }
    node {
      name: "linear/linear_model/linear_model/pitcher1_Game/strided_slice/stack"
      op: "Const"
      attr {
        key: "_output_shapes"
        value {
          list {
            shape {
              dim {
                size: 1
              }
            }
          }
        }
      }
      attr {
        key: "dtype"
        value {
          type: DT_INT32
        }
      }
      attr {
        key: "value"
        value {
          tensor {
            dtype: DT_INT32
            tensor_shape {
              dim {
                size: 1
              }
            }
            int_val: 0
          }
        }
      }
    }
    node {
      name: "linear/linear_model/linear_model/pitcher1_Game/strided_slice/stack_1"
      op: "Const"
      attr {
        key: "_output_shapes"
        value {
          list {
            shape {
              dim {
                size: 1
              }
            }
          }
        }
      }
      attr {
        key: "dtype"
        value {
          type: DT_INT32
        }
      }
      attr {
        key: "value"
        value {
          tensor {
            dtype: DT_INT32
            tensor_shape {
              dim {
                size: 1
              }
            }
            int_val: 1
          }
        }
      }
    }
    node {
      name: "linear/linear_model/linear_model/pitcher1_Game/strided_slice/stack_2"
      op: "Const"
      attr {
        key: "_output_shapes"
        value {
          list {
            shape {
              dim {
                size: 1
              }
            }
          }
        }
      }
      attr {
        key: "dtype"
        value {
          type: DT_INT32
        }
      }
      attr {
        key: "value"
        value {
          tensor {
            dtype: DT_INT32
            tensor_shape {
              dim {
                size: 1
              }
            }
            int_val: 1
          }
        }
      }
    }
    node {
      name: "linear/linear_model/linear_model/pitcher1_Game/strided_slice"
      op: "StridedSlice"
      input: "linear/linear_model/linear_model/pitcher1_Game/Shape"
      input: "linear/linear_model/linear_model/pitcher1_Game/strided_slice/stack"
      input: "linear/linear_model/linear_model/pitcher1_Game/strided_slice/stack_1"
      input: "linear/linear_model/linear_model/pitcher1_Game/strided_slice/stack_2"
      attr {
        key: "Index"
        value {
          type: DT_INT32
        }
      }
      attr {
        key: "T"
        value {
          type: DT_INT32
        }
      }
      attr {
        key: "_output_shapes"
        value {
          list {
            shape {
            }
          }
        }
      }
      attr {
        key: "begin_mask"
        value {
          i: 0
        }
      }
      attr {
        key: "ellipsis_mask"
        value {
          i: 0
        }
      }
      attr {
        key: "end_mask"
        value {
          i: 0
        }
      }
      attr {
        key: "new_axis_mask"
        value {
          i: 0
        }
      }
      attr {
        key: "shrink_axis_mask"
        value {
          i: 1
        }
      }
    }
    node {
      name: "linear/linear_model/linear_model/pitcher1_Game/Reshape/shape/1"
      op: "Const"
      attr {
        key: "_output_shapes"
        value {
          list {
            shape {
            }
          }
        }
      }
      attr {
        key: "dtype"
        value {
          type: DT_INT32
        }
      }
      attr {
        key: "value"
        value {
          tensor {
            dtype: DT_INT32
            tensor_shape {
            }
            int_val: 1
          }
        }
      }
    }
    node {
      name: "linear/linear_model/linear_model/pitcher1_Game/Reshape/shape"
      op: "Pack"
      input: "linear/linear_model/linear_model/pitcher1_Game/strided_slice"
      input: "linear/linear_model/linear_model/pitcher1_Game/Reshape/shape/1"
      attr {
        key: "N"
        value {
          i: 2
        }
      }
      attr {
        key: "T"
        value {
          type: DT_INT32
        }
      }
      attr {
        key: "_output_shapes"
        value {
          list {
            shape {
              dim {
                size: 2
              }
            }
          }
        }
      }
      attr {
        key: "axis"
        value {
          i: 0
        }
      }
    }
    node {
      name: "linear/linear_model/linear_model/pitcher1_Game/Reshape"
      op: "Reshape"
      input: "ParseExample/ParseExample:9"
      input: "linear/linear_model/linear_model/pitcher1_Game/Reshape/shape"
      attr {
        key: "T"
        value {
          type: DT_FLOAT
        }
      }
      attr {
        key: "Tshape"
        value {
          type: DT_INT32
        }
      }
      attr {
        key: "_output_shapes"
        value {
          list {
            shape {
              dim {
                size: -1
              }
              dim {
                size: 1
              }
            }
          }
        }
      }
    }
    node {
      name: "linear/linear_model/pitcher1_Game/weights/ReadVariableOp"
      op: "ReadVariableOp"
      input: "linear/linear_model/pitcher1_Game/weights/part_0"
      attr {
        key: "_output_shapes"
        value {
          list {
            shape {
              dim {
                size: 1
              }
              dim {
                size: 1
              }
            }
          }
        }
      }
      attr {
        key: "dtype"
        value {
          type: DT_FLOAT
        }
      }
    }
    node {
      name: "linear/linear_model/pitcher1_Game/weights"
      op: "Identity"
      input: "linear/linear_model/pitcher1_Game/weights/ReadVariableOp"
      attr {
        key: "T"
        value {
          type: DT_FLOAT
        }
      }
      attr {
        key: "_output_shapes"
        value {
          list {
            shape {
              dim {
                size: 1
              }
              dim {
                size: 1
              }
            }
          }
        }
      }
    }
    node {
      name: "linear/linear_model/linear_model/pitcher1_Game/weighted_sum"
      op: "MatMul"
      input: "linear/linear_model/linear_model/pitcher1_Game/Reshape"
      input: "linear/linear_model/pitcher1_Game/weights"
      attr {
        key: "T"
        value {
          type: DT_FLOAT
        }
      }
      attr {
        key: "_output_shapes"
        value {
          list {
            shape {
              dim {
                size: -1
              }
              dim {
                size: 1
              }
            }
          }
        }
      }
      attr {
        key: "transpose_a"
        value {
          b: false
        }
      }
      attr {
        key: "transpose_b"
        value {
          b: false
        }
      }
    }
    node {
      name: "linear/linear_model/pitcher2_ERA/weights/part_0/Initializer/zeros"
      op: "Const"
      attr {
        key: "_class"
        value {
          list {
…
    node {
      name: "save/Read_21/ReadVariableOp"
      op: "ReadVariableOp"
      input: "linear/linear_model/bias_weights/part_0"
      device: "/device:CPU:0"
      attr {
        key: "_output_shapes"
        value {
          list {
            shape {
              dim {
                size: 1
              }
            }
          }
        }
      }
      attr {
        key: "dtype"
        value {
          type: DT_FLOAT
        }
      }
    }
    node {
      name: "save/Identity_42"
      op: "Identity"
      input: "save/Read_21/ReadVariableOp"
      device: "/device:CPU:0"
      attr {
        key: "T"
        value {
          type: DT_FLOAT
        }
      }
      attr {
        key: "_output_shapes"
        value {
          list {
            shape {
              dim {
                size: 1
              }
            }
          }
        }
      }
    }
    node {
      name: "save/Identity_43"
      op: "Identity"
      input: "save/Identity_42"
      device: "/device:CPU:0"
      attr {
        key: "T"
        value {
          type: DT_FLOAT
        }
      }
      attr {
        key: "_output_shapes"
        value {
          list {
            shape {
              dim {
                size: 1
              }
            }
          }
        }
      }
    }
    node {
      name: "save/Read_22/ReadVariableOp"
      op: "ReadVariableOp"
      input: "linear/linear_model/pitcher1_ERA/weights/part_0"
      device: "/device:CPU:0"
      attr {
        key: "_output_shapes"
        value {
          list {
            shape {
              dim {
                size: 1
              }
              dim {
                size: 1
              }
            }
          }
        }
      }
      attr {
        key: "dtype"
        value {
          type: DT_FLOAT
        }
      }
    }
    node {
      name: "save/Identity_44"
      op: "Identity"
      input: "save/Read_22/ReadVariableOp"
      device: "/device:CPU:0"
      attr {
        key: "T"
        value {
          type: DT_FLOAT
        }
      }
      attr {
        key: "_output_shapes"
        value {
          list {
            shape {
              dim {
                size: 1
              }
              dim {
                size: 1
              }
            }
          }
        }
      }
    }
    node {
      name: "save/Identity_45"
      op: "Identity"
      input: "save/Identity_44"
      device: "/device:CPU:0"
      attr {
        key: "T"
        value {
          type: DT_FLOAT
        }
      }
      attr {
        key: "_output_shapes"
        value {
          list {
            shape {
              dim {
                size: 1
              }
              dim {
                size: 1
              }
            }
          }
        }
      }
    }
    node {
      name: "save/Read_23/ReadVariableOp"
      op: "ReadVariableOp"
      input: "linear/linear_model/pitcher1_Game/weights/part_0"
      device: "/device:CPU:0"
      attr {
        key: "_output_shapes"
        value {
          list {
            shape {
              dim {
                size: 1
              }
              dim {
                size: 1
              }
            }
          }
        }
      }
      attr {
        key: "dtype"
        value {
          type: DT_FLOAT
        }
      }
    }
    node {
      name: "save/Identity_46"
      op: "Identity"
      input: "save/Read_23/ReadVariableOp"
      device: "/device:CPU:0"
      attr {
        key: "T"
        value {
          type: DT_FLOAT
        }
      }
      attr {
        key: "_output_shapes"
        value {
          list {
            shape {
              dim {
                size: 1
              }
              dim {
                size: 1
              }
            }
          }
        }
      }
    }
    node {
      name: "save/Identity_47"
      op: "Identity"
      input: "save/Identity_46"
      device: "/device:CPU:0"
      attr {
        key: "T"
        value {
          type: DT_FLOAT
        }
      }
      attr {
        key: "_output_shapes"
        value {
          list {
            shape {
              dim {
                size: 1
              }
              dim {
                size: 1
              }
            }
          }
        }
      }
    }
    node {
      name: "save/Read_24/ReadVariableOp"
      op: "ReadVariableOp"
      input: "linear/linear_model/pitcher2_ERA/weights/part_0"
      device: "/device:CPU:0"
      attr {
        key: "_output_shapes"
        value {
          list {
            shape {
              dim {
                size: 1
              }
              dim {
                size: 1
              }
            }
          }
        }
      }
      attr {
        key: "dtype"
        value {
          type: DT_FLOAT
        }
      }
    }
    node {
      name: "save/Identity_48"
      op: "Identity"
      input: "save/Read_24/ReadVariableOp"
      device: "/device:CPU:0"
      attr {
        key: "T"
        value {
          type: DT_FLOAT
        }
      }
      attr {
        key: "_output_shapes"
        value {
          list {
            shape {
              dim {
                size: 1
              }
              dim {
                size: 1
              }
            }
          }
        }
      }
    }
    node {
      name: "save/Identity_49"
      op: "Identity"
      input: "save/Identity_48"
      device: "/device:CPU:0"
      attr {
        key: "T"
        value {
          type: DT_FLOAT
        }
      }
      attr {
        key: "_output_shapes"
        value {
          list {
            shape {
              dim {
                size: 1
              }
              dim {
                size: 1
              }
            }
          }
        }
      }
    }
    node {
      name: "save/Read_25/ReadVariableOp"
      op: "ReadVariableOp"
      input: "linear/linear_model/pitcher2_Game/weights/part_0"
      device: "/device:CPU:0"
      attr {
        key: "_output_shapes"
        value {
          list {
            shape {
              dim {
                size: 1
              }
              dim {
                size: 1
              }
            }
          }
        }
      }
      attr {
        key: "dtype"
        value {
          type: DT_FLOAT
        }
      }
    }
    node {
      name: "save/Identity_50"
      op: "Identity"
      input: "save/Read_25/ReadVariableOp"
      device: "/device:CPU:0"
      attr {
        key: "T"
        value {
          type: DT_FLOAT
        }
      }
      attr {
        key: "_output_shapes"
        value {
          list {
            shape {
              dim {
                size: 1
              }
              dim {
                size: 1
              }
            }
          }
        }
      }
    }
    node {
      name: "save/Identity_51"
      op: "Identity"
      input: "save/Identity_50"
      device: "/device:CPU:0"
      attr {
        key: "T"
        value {
          type: DT_FLOAT
        }
      }
      attr {
        key: "_output_shapes"
        value {
          list {
            shape {
              dim {
                size: 1
              }
              dim {
                size: 1
              }
            }
          }
        }
      }
    }
    node {
      name: "save/SaveV2_1/tensor_names"
      op: "Const"
      device: "/device:CPU:0"
      attr {
        key: "_output_shapes"
        value {
          list {
            shape {
              dim {
                size: 13
              }
            }
          }
        }
      }
      attr {
        key: "dtype"
        value {
          type: DT_STRING
        }
      }
      attr {
        key: "value"
        value {
          tensor {
            dtype: DT_STRING
            tensor_shape {
              dim {
                size: 13
              }
            }
            string_val: "linear/linear_model/batter3_Game/weights"
            string_val: "linear/linear_model/batter3_HitRate/weights"
            string_val: "linear/linear_model/batter4_Game/weights"
            string_val: "linear/linear_model/batter4_HitRate/weights"
            string_val: "linear/linear_model/batter8_Game/weights"
            string_val: "linear/linear_model/batter8_HitRate/weights"
            string_val: "linear/linear_model/batter9_Game/weights"
            string_val: "linear/linear_model/batter9_HitRate/weights"
            string_val: "linear/linear_model/bias_weights"
            string_val: "linear/linear_model/pitcher1_ERA/weights"
            string_val: "linear/linear_model/pitcher1_Game/weights"
            string_val: "linear/linear_model/pitcher2_ERA/weights"
            string_val: "linear/linear_model/pitcher2_Game/weights"
          }
        }
      }
    }
    node {
      name: "save/SaveV2_1/shape_and_slices"
      op: "Const"
      device: "/device:CPU:0"
      attr {
        key: "_output_shapes"
        value {
          list {
            shape {
              dim {
                size: 13
              }
            }
          }
        }
      }
      attr {
        key: "dtype"
        value {
          type: DT_STRING
        }
      }
      attr {
        key: "value"
        value {
          tensor {
            dtype: DT_STRING
            tensor_shape {
              dim {
                size: 13
              }
            }
            string_val: "1 1 0,1:0,1"
            string_val: "1 1 0,1:0,1"
            string_val: "1 1 0,1:0,1"
            string_val: "1 1 0,1:0,1"
            string_val: "1 1 0,1:0,1"
            string_val: "1 1 0,1:0,1"
            string_val: "1 1 0,1:0,1"
            string_val: "1 1 0,1:0,1"
            string_val: "1 0,1"
            string_val: "1 1 0,1:0,1"
            string_val: "1 1 0,1:0,1"
            string_val: "1 1 0,1:0,1"
            string_val: "1 1 0,1:0,1"
          }
        }
      }
    }
    node {
      name: "save/SaveV2_1"
      op: "SaveV2"
      input: "save/ShardedFilename_1"
      input: "save/SaveV2_1/tensor_names"
      input: "save/SaveV2_1/shape_and_slices"
      input: "save/Identity_27"
      input: "save/Identity_29"
      input: "save/Identity_31"
      input: "save/Identity_33"
      input: "save/Identity_35"
      input: "save/Identity_37"
      input: "save/Identity_39"
      input: "save/Identity_41"
      input: "save/Identity_43"
      input: "save/Identity_45"
      input: "save/Identity_47"
      input: "save/Identity_49"
      input: "save/Identity_51"
      device: "/device:CPU:0"
      attr {
        key: "dtypes"
        value {
          list {
            type: DT_FLOAT
            type: DT_FLOAT
            type: DT_FLOAT
            type: DT_FLOAT
            type: DT_FLOAT
            type: DT_FLOAT
            type: DT_FLOAT
            type: DT_FLOAT
            type: DT_FLOAT
            type: DT_FLOAT
            type: DT_FLOAT
            type: DT_FLOAT
            type: DT_FLOAT
          }
        }
      }
    }
    node {
      name: "save/control_dependency_1"
      op: "Identity"
      input: "save/ShardedFilename_1"
      input: "^save/SaveV2_1"
      device: "/device:CPU:0"
      attr {
        key: "T"
        value {
          type: DT_STRING
        }
      }
      attr {
        key: "_class"
        value {
          list {
            s: "loc:@save/ShardedFilename_1"
          }
        }
      }
      attr {
        key: "_output_shapes"
        value {
          list {
            shape {
            }
          }
        }
      }
    }
    node {
      name: "save/MergeV2Checkpoints/checkpoint_prefixes"
      op: "Pack"
      input: "save/ShardedFilename"
      input: "save/ShardedFilename_1"
      input: "^save/control_dependency"
      input: "^save/control_dependency_1"
      device: "/device:CPU:0"
      attr {
        key: "N"
        value {
          i: 2
        }
      }
      attr {
        key: "T"
        value {
          type: DT_STRING
        }
      }
      attr {
        key: "_output_shapes"
        value {
          list {
            shape {
              dim {
                size: 2
              }
            }
          }
        }
      }
      attr {
        key: "axis"
        value {
          i: 0
        }
      }
    }
    node {
      name: "save/MergeV2Checkpoints"
      op: "MergeV2Checkpoints"
      input: "save/MergeV2Checkpoints/checkpoint_prefixes"
      input: "save/Const"
      device: "/device:CPU:0"
      attr {
        key: "delete_old_dirs"
        value {
          b: true
        }
      }
    }
    node {
      name: "save/Identity_52"
      op: "Identity"
      input: "save/Const"
      input: "^save/MergeV2Checkpoints"
      input: "^save/control_dependency"
      input: "^save/control_dependency_1"
      device: "/device:CPU:0"
      attr {
        key: "T"
        value {
          type: DT_STRING
        }
      }
      attr {
        key: "_output_shapes"
        value {
          list {
            shape {
            }
          }
        }
      }
    }
    node {
      name: "save/RestoreV2/tensor_names"
      op: "Const"
      device: "/device:CPU:0"
      attr {
        key: "_output_shapes"
        value {
          list {
            shape {
              dim {
                size: 1
              }
            }
          }
        }
      }
      attr {
        key: "dtype"
        value {
          type: DT_STRING
        }
      }
      attr {
        key: "value"
        value {
          tensor {
            dtype: DT_STRING
            tensor_shape {
              dim {
                size: 1
              }
            }
            string_val: "global_step"
          }
        }
      }
    }
    node {
      name: "save/RestoreV2/shape_and_slices"
      op: "Const"
      device: "/device:CPU:0"
      attr {
        key: "_output_shapes"
        value {
          list {
            shape {
              dim {
                size: 1
              }
            }
          }
        }
      }
      attr {
        key: "dtype"
        value {
          type: DT_STRING
        }
      }
      attr {
        key: "value"
        value {
          tensor {
            dtype: DT_STRING
            tensor_shape {
              dim {
                size: 1
              }
            }
            string_val: ""
          }
        }
      }
    }
    node {
      name: "save/RestoreV2"
      op: "RestoreV2"
      input: "save/Const"
      input: "save/RestoreV2/tensor_names"
      input: "save/RestoreV2/shape_and_slices"
      device: "/device:CPU:0"
      attr {
        key: "_output_shapes"
        value {
          list {
            shape {
              unknown_rank: true
            }
          }
        }
      }
      attr {
        key: "dtypes"
        value {
          list {
            type: DT_INT64
          }
        }
      }
    }
    node {
      name: "save/Assign"
      op: "Assign"
      input: "global_step"
      input: "save/RestoreV2"
      attr {
        key: "T"
        value {
          type: DT_INT64
        }
      }
      attr {
        key: "_class"
        value {
          list {
            s: "loc:@global_step"
          }
        }
      }
      attr {
        key: "_output_shapes"
        value {
          list {
            shape {
            }
          }
        }
      }
      attr {
        key: "use_locking"
        value {
          b: true
        }
      }
      attr {
        key: "validate_shape"
        value {
          b: true
        }
      }
    }
    node {
      name: "save/restore_shard"
      op: "NoOp"
      input: "^save/Assign"
    }
    node {
      name: "save/RestoreV2_1/tensor_names"
      op: "Const"
      device: "/device:CPU:0"
      attr {
        key: "_output_shapes"
        value {
          list {
            shape {
              dim {
                size: 13
              }
            }
          }
        }
      }
      attr {
        key: "dtype"
        value {
          type: DT_STRING
        }
      }
      attr {
        key: "value"
        value {
          tensor {
            dtype: DT_STRING
            tensor_shape {
              dim {
                size: 13
              }
            }
            string_val: "linear/linear_model/batter3_Game/weights"
            string_val: "linear/linear_model/batter3_HitRate/weights"
            string_val: "linear/linear_model/batter4_Game/weights"
            string_val: "linear/linear_model/batter4_HitRate/weights"
            string_val: "linear/linear_model/batter8_Game/weights"
            string_val: "linear/linear_model/batter8_HitRate/weights"
            string_val: "linear/linear_model/batter9_Game/weights"
            string_val: "linear/linear_model/batter9_HitRate/weights"
            string_val: "linear/linear_model/bias_weights"
            string_val: "linear/linear_model/pitcher1_ERA/weights"
            string_val: "linear/linear_model/pitcher1_Game/weights"
            string_val: "linear/linear_model/pitcher2_ERA/weights"
            string_val: "linear/linear_model/pitcher2_Game/weights"
          }
        }
      }
    }
    node {
      name: "save/RestoreV2_1/shape_and_slices"
      op: "Const"
      device: "/device:CPU:0"
      attr {
        key: "_output_shapes"
        value {
          list {
            shape {
              dim {
                size: 13
              }
            }
          }
        }
      }
      attr {
        key: "dtype"
        value {
          type: DT_STRING
        }
      }
      attr {
        key: "value"
        value {
          tensor {
            dtype: DT_STRING
            tensor_shape {
              dim {
                size: 13
              }
            }
            string_val: "1 1 0,1:0,1"
            string_val: "1 1 0,1:0,1"
            string_val: "1 1 0,1:0,1"
            string_val: "1 1 0,1:0,1"
            string_val: "1 1 0,1:0,1"
            string_val: "1 1 0,1:0,1"
            string_val: "1 1 0,1:0,1"
            string_val: "1 1 0,1:0,1"
            string_val: "1 0,1"
            string_val: "1 1 0,1:0,1"
            string_val: "1 1 0,1:0,1"
            string_val: "1 1 0,1:0,1"
            string_val: "1 1 0,1:0,1"
          }
        }
      }
    }
    node {
      name: "save/RestoreV2_1"
      op: "RestoreV2"
      input: "save/Const"
      input: "save/RestoreV2_1/tensor_names"
      input: "save/RestoreV2_1/shape_and_slices"
      device: "/device:CPU:0"
      attr {
        key: "_output_shapes"
        value {
          list {
            shape {
              dim {
                size: 1
              }
              dim {
                size: 1
              }
            }
            shape {
              dim {
                size: 1
              }
              dim {
                size: 1
              }
            }
            shape {
              dim {
                size: 1
              }
              dim {
                size: 1
              }
            }
            shape {
              dim {
                size: 1
              }
              dim {
                size: 1
              }
            }
            shape {
              dim {
                size: 1
              }
              dim {
                size: 1
              }
            }
            shape {
              dim {
                size: 1
              }
              dim {
                size: 1
              }
            }
            shape {
              dim {
                size: 1
              }
              dim {
                size: 1
              }
            }
            shape {
              dim {
                size: 1
              }
              dim {
                size: 1
              }
            }
            shape {
              dim {
                size: 1
              }
            }
            shape {
              dim {
                size: 1
              }
              dim {
                size: 1
              }
            }
            shape {
              dim {
                size: 1
              }
              dim {
                size: 1
              }
            }
            shape {
              dim {
                size: 1
              }
              dim {
                size: 1
              }
            }
            shape {
              dim {
                size: 1
              }
              dim {
                size: 1
              }
            }
          }
        }
      }
      attr {
        key: "dtypes"
        value {
          list {
            type: DT_FLOAT
            type: DT_FLOAT
            type: DT_FLOAT
            type: DT_FLOAT
            type: DT_FLOAT
            type: DT_FLOAT
            type: DT_FLOAT
            type: DT_FLOAT
            type: DT_FLOAT
            type: DT_FLOAT
            type: DT_FLOAT
            type: DT_FLOAT
            type: DT_FLOAT
          }
        }
      }
    }
    node {
      name: "save/Identity_53"
      op: "Identity"
      input: "save/RestoreV2_1"
      device: "/device:CPU:0"
      attr {
        key: "T"
        value {
          type: DT_FLOAT
        }
      }
      attr {
        key: "_output_shapes"
        value {
          list {
            shape {
              dim {
                size: 1
              }
              dim {
                size: 1
              }
            }
          }
        }
      }
    }
    node {
      name: "save/AssignVariableOp"
      op: "AssignVariableOp"
      input: "linear/linear_model/batter3_Game/weights/part_0"
      input: "save/Identity_53"
      device: "/device:CPU:0"
      attr {
        key: "dtype"
        value {
          type: DT_FLOAT
        }
      }
    }
    node {
      name: "save/Identity_54"
      op: "Identity"
      input: "save/RestoreV2_1:1"
      device: "/device:CPU:0"
      attr {
        key: "T"
        value {
          type: DT_FLOAT
        }
      }
      attr {
        key: "_output_shapes"
        value {
          list {
            shape {
              dim {
                size: 1
              }
              dim {
                size: 1
              }
            }
          }
        }
      }
    }
    node {
      name: "save/AssignVariableOp_1"
      op: "AssignVariableOp"
      input: "linear/linear_model/batter3_HitRate/weights/part_0"
      input: "save/Identity_54"
      device: "/device:CPU:0"
      attr {
        key: "dtype"
        value {
          type: DT_FLOAT
        }
      }
    }
    node {
      name: "save/Identity_55"
      op: "Identity"
      input: "save/RestoreV2_1:2"
      device: "/device:CPU:0"
      attr {
        key: "T"
        value {
          type: DT_FLOAT
        }
      }
      attr {
        key: "_output_shapes"
        value {
          list {
            shape {
              dim {
                size: 1
              }
              dim {
                size: 1
              }
            }
          }
        }
      }
    }
    node {
      name: "save/AssignVariableOp_2"
      op: "AssignVariableOp"
      input: "linear/linear_model/batter4_Game/weights/part_0"
      input: "save/Identity_55"
      device: "/device:CPU:0"
      attr {
        key: "dtype"
        value {
          type: DT_FLOAT
        }
      }
    }
    node {
      name: "save/Identity_56"
      op: "Identity"
      input: "save/RestoreV2_1:3"
      device: "/device:CPU:0"
      attr {
        key: "T"
        value {
          type: DT_FLOAT
        }
      }
      attr {
        key: "_output_shapes"
        value {
          list {
            shape {
              dim {
                size: 1
              }
              dim {
                size: 1
              }
            }
          }
        }
      }
    }
    node {
      name: "save/AssignVariableOp_3"
      op: "AssignVariableOp"
      input: "linear/linear_model/batter4_HitRate/weights/part_0"
      input: "save/Identity_56"
      device: "/device:CPU:0"
      attr {
        key: "dtype"
        value {
          type: DT_FLOAT
        }
      }
    }
    node {
      name: "save/Identity_57"
      op: "Identity"
      input: "save/RestoreV2_1:4"
      device: "/device:CPU:0"
      attr {
        key: "T"
        value {
          type: DT_FLOAT
        }
      }
      attr {
        key: "_output_shapes"
        value {
          list {
            shape {
              dim {
                size: 1
              }
              dim {
                size: 1
              }
            }
          }
        }
      }
    }
    node {
      name: "save/AssignVariableOp_4"
      op: "AssignVariableOp"
      input: "linear/linear_model/batter8_Game/weights/part_0"
      input: "save/Identity_57"
      device: "/device:CPU:0"
      attr {
        key: "dtype"
        value {
          type: DT_FLOAT
        }
      }
    }
    node {
      name: "save/Identity_58"
      op: "Identity"
      input: "save/RestoreV2_1:5"
      device: "/device:CPU:0"
      attr {
        key: "T"
        value {
          type: DT_FLOAT
        }
      }
      attr {
        key: "_output_shapes"
        value {
          list {
            shape {
              dim {
                size: 1
              }
              dim {
                size: 1
              }
            }
          }
        }
      }
    }
    node {
      name: "save/AssignVariableOp_5"
      op: "AssignVariableOp"
      input: "linear/linear_model/batter8_HitRate/weights/part_0"
      input: "save/Identity_58"
      device: "/device:CPU:0"
      attr {
        key: "dtype"
        value {
          type: DT_FLOAT
        }
      }
    }
    node {
      name: "save/Identity_59"
      op: "Identity"
      input: "save/RestoreV2_1:6"
      device: "/device:CPU:0"
      attr {
        key: "T"
        value {
          type: DT_FLOAT
        }
      }
      attr {
        key: "_output_shapes"
        value {
          list {
            shape {
              dim {
                size: 1
              }
              dim {
                size: 1
              }
            }
          }
        }
      }
    }
    node {
      name: "save/AssignVariableOp_6"
      op: "AssignVariableOp"
      input: "linear/linear_model/batter9_Game/weights/part_0"
      input: "save/Identity_59"
      device: "/device:CPU:0"
      attr {
        key: "dtype"
        value {
          type: DT_FLOAT
        }
      }
    }
    node {
      name: "save/Identity_60"
      op: "Identity"
      input: "save/RestoreV2_1:7"
      device: "/device:CPU:0"
      attr {
        key: "T"
        value {
          type: DT_FLOAT
        }
      }
      attr {
        key: "_output_shapes"
        value {
          list {
            shape {
              dim {
                size: 1
              }
              dim {
                size: 1
              }
            }
          }
        }
      }
    }
    node {
      name: "save/AssignVariableOp_7"
      op: "AssignVariableOp"
      input: "linear/linear_model/batter9_HitRate/weights/part_0"
      input: "save/Identity_60"
      device: "/device:CPU:0"
      attr {
        key: "dtype"
        value {
          type: DT_FLOAT
        }
      }
    }
    node {
      name: "save/Identity_61"
      op: "Identity"
      input: "save/RestoreV2_1:8"
      device: "/device:CPU:0"
      attr {
        key: "T"
        value {
          type: DT_FLOAT
        }
      }
      attr {
        key: "_output_shapes"
        value {
          list {
            shape {
              dim {
                size: 1
              }
            }
          }
        }
      }
    }
    node {
      name: "save/AssignVariableOp_8"
      op: "AssignVariableOp"
      input: "linear/linear_model/bias_weights/part_0"
      input: "save/Identity_61"
      device: "/device:CPU:0"
      attr {
        key: "dtype"
        value {
          type: DT_FLOAT
        }
      }
    }
    node {
      name: "save/Identity_62"
      op: "Identity"
      input: "save/RestoreV2_1:9"
      device: "/device:CPU:0"
      attr {
        key: "T"
        value {
          type: DT_FLOAT
        }
      }
      attr {
        key: "_output_shapes"
        value {
          list {
            shape {
              dim {
                size: 1
              }
              dim {
                size: 1
              }
            }
          }
        }
      }
    }
    node {
      name: "save/AssignVariableOp_9"
      op: "AssignVariableOp"
      input: "linear/linear_model/pitcher1_ERA/weights/part_0"
      input: "save/Identity_62"
      device: "/device:CPU:0"
      attr {
        key: "dtype"
        value {
          type: DT_FLOAT
        }
      }
    }
    node {
      name: "save/Identity_63"
      op: "Identity"
      input: "save/RestoreV2_1:10"
      device: "/device:CPU:0"
      attr {
        key: "T"
        value {
          type: DT_FLOAT
        }
      }
      attr {
        key: "_output_shapes"
        value {
          list {
            shape {
              dim {
                size: 1
              }
              dim {
                size: 1
              }
            }
          }
        }
      }
    }
    node {
      name: "save/AssignVariableOp_10"
      op: "AssignVariableOp"
      input: "linear/linear_model/pitcher1_Game/weights/part_0"
      input: "save/Identity_63"
      device: "/device:CPU:0"
      attr {
        key: "dtype"
        value {
          type: DT_FLOAT
        }
      }
    }
    node {
      name: "save/Identity_64"
      op: "Identity"
      input: "save/RestoreV2_1:11"
      device: "/device:CPU:0"
      attr {
        key: "T"
        value {
          type: DT_FLOAT
        }
      }
      attr {
        key: "_output_shapes"
        value {
          list {
            shape {
              dim {
                size: 1
              }
              dim {
                size: 1
              }
            }
          }
        }
      }
    }
    node {
      name: "save/AssignVariableOp_11"
      op: "AssignVariableOp"
      input: "linear/linear_model/pitcher2_ERA/weights/part_0"
      input: "save/Identity_64"
      device: "/device:CPU:0"
      attr {
        key: "dtype"
        value {
          type: DT_FLOAT
        }
      }
    }
    node {
      name: "save/Identity_65"
      op: "Identity"
      input: "save/RestoreV2_1:12"
      device: "/device:CPU:0"
      attr {
        key: "T"
        value {
          type: DT_FLOAT
        }
      }
      attr {
        key: "_output_shapes"
        value {
          list {
            shape {
              dim {
                size: 1
              }
              dim {
                size: 1
              }
            }
          }
        }
      }
    }
    node {
      name: "save/AssignVariableOp_12"
      op: "AssignVariableOp"
      input: "linear/linear_model/pitcher2_Game/weights/part_0"
      input: "save/Identity_65"
      device: "/device:CPU:0"
      attr {
        key: "dtype"
        value {
          type: DT_FLOAT
        }
      }
    }
    node {
      name: "save/restore_shard_1"
      op: "NoOp"
      input: "^save/AssignVariableOp"
      input: "^save/AssignVariableOp_1"
      input: "^save/AssignVariableOp_10"
      input: "^save/AssignVariableOp_11"
      input: "^save/AssignVariableOp_12"
      input: "^save/AssignVariableOp_2"
      input: "^save/AssignVariableOp_3"
      input: "^save/AssignVariableOp_4"
      input: "^save/AssignVariableOp_5"
      input: "^save/AssignVariableOp_6"
      input: "^save/AssignVariableOp_7"
      input: "^save/AssignVariableOp_8"
      input: "^save/AssignVariableOp_9"
      device: "/device:CPU:0"
    }
    node {
      name: "save/restore_all/NoOp"
      op: "NoOp"
      input: "^save/restore_shard"
    }
    node {
      name: "save/restore_all/NoOp_1"
      op: "NoOp"
      input: "^save/restore_shard_1"
      device: "/device:CPU:0"
    }
    node {
      name: "save/restore_all"
      op: "NoOp"
      input: "^save/restore_all/NoOp"
      input: "^save/restore_all/NoOp_1"
    }
    versions {
      producer: 27
    }
  }
  saver_def {
    filename_tensor_name: "save/Const:0"
    save_tensor_name: "save/Identity_52:0"
    restore_op_name: "save/restore_all"
    max_to_keep: 5
    sharded: true
    keep_checkpoint_every_n_hours: 10000.0
    version: V2
  }
  collection_def {
    key: "global_step"
    value {
      bytes_list {
        value: "\n\rglobal_step:0\022\022global_step/Assign\032\022global_step/read:02\037global_step/Initializer/zeros:0"
      }
    }
  }
  collection_def {
    key: "model_variables"
    value {
      bytes_list {
        value: "\n1linear/linear_model/batter3_Game/weights/part_0:0\0226linear/linear_model/batter3_Game/weights/part_0/Assign\032Elinear/linear_model/batter3_Game/weights/part_0/Read/ReadVariableOp:0\"6\n(linear/linear_model/batter3_Game/weights\022\002\001\001\032\002\000\000\"\002\001\001(\0012Clinear/linear_model/batter3_Game/weights/part_0/Initializer/zeros:08\001"
        value: "\n4linear/linear_model/batter3_HitRate/weights/part_0:0\0229linear/linear_model/batter3_HitRate/weights/part_0/Assign\032Hlinear/linear_model/batter3_HitRate/weights/part_0/Read/ReadVariableOp:0\"9\n+linear/linear_model/batter3_HitRate/weights\022\002\001\001\032\002\000\000\"\002\001\001(\0012Flinear/linear_model/batter3_HitRate/weights/part_0/Initializer/zeros:08\001"
        value: "\n1linear/linear_model/batter4_Game/weights/part_0:0\0226linear/linear_model/batter4_Game/weights/part_0/Assign\032Elinear/linear_model/batter4_Game/weights/part_0/Read/ReadVariableOp:0\"6\n(linear/linear_model/batter4_Game/weights\022\002\001\001\032\002\000\000\"\002\001\001(\0012Clinear/linear_model/batter4_Game/weights/part_0/Initializer/zeros:08\001"
        value: "\n4linear/linear_model/batter4_HitRate/weights/part_0:0\0229linear/linear_model/batter4_HitRate/weights/part_0/Assign\032Hlinear/linear_model/batter4_HitRate/weights/part_0/Read/ReadVariableOp:0\"9\n+linear/linear_model/batter4_HitRate/weights\022\002\001\001\032\002\000\000\"\002\001\001(\0012Flinear/linear_model/batter4_HitRate/weights/part_0/Initializer/zeros:08\001"
        value: "\n1linear/linear_model/batter8_Game/weights/part_0:0\0226linear/linear_model/batter8_Game/weights/part_0/Assign\032Elinear/linear_model/batter8_Game/weights/part_0/Read/ReadVariableOp:0\"6\n(linear/linear_model/batter8_Game/weights\022\002\001\001\032\002\000\000\"\002\001\001(\0012Clinear/linear_model/batter8_Game/weights/part_0/Initializer/zeros:08\001"
        value: "\n4linear/linear_model/batter8_HitRate/weights/part_0:0\0229linear/linear_model/batter8_HitRate/weights/part_0/Assign\032Hlinear/linear_model/batter8_HitRate/weights/part_0/Read/ReadVariableOp:0\"9\n+linear/linear_model/batter8_HitRate/weights\022\002\001\001\032\002\000\000\"\002\001\001(\0012Flinear/linear_model/batter8_HitRate/weights/part_0/Initializer/zeros:08\001"
        value: "\n1linear/linear_model/batter9_Game/weights/part_0:0\0226linear/linear_model/batter9_Game/weights/part_0/Assign\032Elinear/linear_model/batter9_Game/weights/part_0/Read/ReadVariableOp:0\"6\n(linear/linear_model/batter9_Game/weights\022\002\001\001\032\002\000\000\"\002\001\001(\0012Clinear/linear_model/batter9_Game/weights/part_0/Initializer/zeros:08\001"
        value: "\n4linear/linear_model/batter9_HitRate/weights/part_0:0\0229linear/linear_model/batter9_HitRate/weights/part_0/Assign\032Hlinear/linear_model/batter9_HitRate/weights/part_0/Read/ReadVariableOp:0\"9\n+linear/linear_model/batter9_HitRate/weights\022\002\001\001\032\002\000\000\"\002\001\001(\0012Flinear/linear_model/batter9_HitRate/weights/part_0/Initializer/zeros:08\001"
        value: "\n1linear/linear_model/pitcher1_ERA/weights/part_0:0\0226linear/linear_model/pitcher1_ERA/weights/part_0/Assign\032Elinear/linear_model/pitcher1_ERA/weights/part_0/Read/ReadVariableOp:0\"6\n(linear/linear_model/pitcher1_ERA/weights\022\002\001\001\032\002\000\000\"\002\001\001(\0012Clinear/linear_model/pitcher1_ERA/weights/part_0/Initializer/zeros:08\001"
        value: "\n2linear/linear_model/pitcher1_Game/weights/part_0:0\0227linear/linear_model/pitcher1_Game/weights/part_0/Assign\032Flinear/linear_model/pitcher1_Game/weights/part_0/Read/ReadVariableOp:0\"7\n)linear/linear_model/pitcher1_Game/weights\022\002\001\001\032\002\000\000\"\002\001\001(\0012Dlinear/linear_model/pitcher1_Game/weights/part_0/Initializer/zeros:08\001"
        value: "\n1linear/linear_model/pitcher2_ERA/weights/part_0:0\0226linear/linear_model/pitcher2_ERA/weights/part_0/Assign\032Elinear/linear_model/pitcher2_ERA/weights/part_0/Read/ReadVariableOp:0\"6\n(linear/linear_model/pitcher2_ERA/weights\022\002\001\001\032\002\000\000\"\002\001\001(\0012Clinear/linear_model/pitcher2_ERA/weights/part_0/Initializer/zeros:08\001"
        value: "\n2linear/linear_model/pitcher2_Game/weights/part_0:0\0227linear/linear_model/pitcher2_Game/weights/part_0/Assign\032Flinear/linear_model/pitcher2_Game/weights/part_0/Read/ReadVariableOp:0\"7\n)linear/linear_model/pitcher2_Game/weights\022\002\001\001\032\002\000\000\"\002\001\001(\0012Dlinear/linear_model/pitcher2_Game/weights/part_0/Initializer/zeros:08\001"
        value: "\n)linear/linear_model/bias_weights/part_0:0\022.linear/linear_model/bias_weights/part_0/Assign\032=linear/linear_model/bias_weights/part_0/Read/ReadVariableOp:0\"+\n linear/linear_model/bias_weights\022\001\001\032\001\000\"\001\001(\0012;linear/linear_model/bias_weights/part_0/Initializer/zeros:08\001"
      }
    }
  }
  collection_def {
    key: "saved_model_main_op"
    value {
      node_list {
        value: "group_deps"
      }
    }
  }
  collection_def {
    key: "summaries"
    value {
      node_list {
        value: "linear/bias:0"
        value: "linear/fraction_of_zero_weights:0"
      }
    }
  }
  collection_def {
    key: "trainable_variables"
    value {
      bytes_list {
        value: "\n1linear/linear_model/batter3_Game/weights/part_0:0\0226linear/linear_model/batter3_Game/weights/part_0/Assign\032Elinear/linear_model/batter3_Game/weights/part_0/Read/ReadVariableOp:0\"6\n(linear/linear_model/batter3_Game/weights\022\002\001\001\032\002\000\000\"\002\001\001(\0012Clinear/linear_model/batter3_Game/weights/part_0/Initializer/zeros:08\001"
        value: "\n4linear/linear_model/batter3_HitRate/weights/part_0:0\0229linear/linear_model/batter3_HitRate/weights/part_0/Assign\032Hlinear/linear_model/batter3_HitRate/weights/part_0/Read/ReadVariableOp:0\"9\n+linear/linear_model/batter3_HitRate/weights\022\002\001\001\032\002\000\000\"\002\001\001(\0012Flinear/linear_model/batter3_HitRate/weights/part_0/Initializer/zeros:08\001"
        value: "\n1linear/linear_model/batter4_Game/weights/part_0:0\0226linear/linear_model/batter4_Game/weights/part_0/Assign\032Elinear/linear_model/batter4_Game/weights/part_0/Read/ReadVariableOp:0\"6\n(linear/linear_model/batter4_Game/weights\022\002\001\001\032\002\000\000\"\002\001\001(\0012Clinear/linear_model/batter4_Game/weights/part_0/Initializer/zeros:08\001"
        value: "\n4linear/linear_model/batter4_HitRate/weights/part_0:0\0229linear/linear_model/batter4_HitRate/weights/part_0/Assign\032Hlinear/linear_model/batter4_HitRate/weights/part_0/Read/ReadVariableOp:0\"9\n+linear/linear_model/batter4_HitRate/weights\022\002\001\001\032\002\000\000\"\002\001\001(\0012Flinear/linear_model/batter4_HitRate/weights/part_0/Initializer/zeros:08\001"
        value: "\n1linear/linear_model/batter8_Game/weights/part_0:0\0226linear/linear_model/batter8_Game/weights/part_0/Assign\032Elinear/linear_model/batter8_Game/weights/part_0/Read/ReadVariableOp:0\"6\n(linear/linear_model/batter8_Game/weights\022\002\001\001\032\002\000\000\"\002\001\001(\0012Clinear/linear_model/batter8_Game/weights/part_0/Initializer/zeros:08\001"
        value: "\n4linear/linear_model/batter8_HitRate/weights/part_0:0\0229linear/linear_model/batter8_HitRate/weights/part_0/Assign\032Hlinear/linear_model/batter8_HitRate/weights/part_0/Read/ReadVariableOp:0\"9\n+linear/linear_model/batter8_HitRate/weights\022\002\001\001\032\002\000\000\"\002\001\001(\0012Flinear/linear_model/batter8_HitRate/weights/part_0/Initializer/zeros:08\001"
        value: "\n1linear/linear_model/batter9_Game/weights/part_0:0\0226linear/linear_model/batter9_Game/weights/part_0/Assign\032Elinear/linear_model/batter9_Game/weights/part_0/Read/ReadVariableOp:0\"6\n(linear/linear_model/batter9_Game/weights\022\002\001\001\032\002\000\000\"\002\001\001(\0012Clinear/linear_model/batter9_Game/weights/part_0/Initializer/zeros:08\001"
        value: "\n4linear/linear_model/batter9_HitRate/weights/part_0:0\0229linear/linear_model/batter9_HitRate/weights/part_0/Assign\032Hlinear/linear_model/batter9_HitRate/weights/part_0/Read/ReadVariableOp:0\"9\n+linear/linear_model/batter9_HitRate/weights\022\002\001\001\032\002\000\000\"\002\001\001(\0012Flinear/linear_model/batter9_HitRate/weights/part_0/Initializer/zeros:08\001"
        value: "\n1linear/linear_model/pitcher1_ERA/weights/part_0:0\0226linear/linear_model/pitcher1_ERA/weights/part_0/Assign\032Elinear/linear_model/pitcher1_ERA/weights/part_0/Read/ReadVariableOp:0\"6\n(linear/linear_model/pitcher1_ERA/weights\022\002\001\001\032\002\000\000\"\002\001\001(\0012Clinear/linear_model/pitcher1_ERA/weights/part_0/Initializer/zeros:08\001"
        value: "\n2linear/linear_model/pitcher1_Game/weights/part_0:0\0227linear/linear_model/pitcher1_Game/weights/part_0/Assign\032Flinear/linear_model/pitcher1_Game/weights/part_0/Read/ReadVariableOp:0\"7\n)linear/linear_model/pitcher1_Game/weights\022\002\001\001\032\002\000\000\"\002\001\001(\0012Dlinear/linear_model/pitcher1_Game/weights/part_0/Initializer/zeros:08\001"
        value: "\n1linear/linear_model/pitcher2_ERA/weights/part_0:0\0226linear/linear_model/pitcher2_ERA/weights/part_0/Assign\032Elinear/linear_model/pitcher2_ERA/weights/part_0/Read/ReadVariableOp:0\"6\n(linear/linear_model/pitcher2_ERA/weights\022\002\001\001\032\002\000\000\"\002\001\001(\0012Clinear/linear_model/pitcher2_ERA/weights/part_0/Initializer/zeros:08\001"
        value: "\n2linear/linear_model/pitcher2_Game/weights/part_0:0\0227linear/linear_model/pitcher2_Game/weights/part_0/Assign\032Flinear/linear_model/pitcher2_Game/weights/part_0/Read/ReadVariableOp:0\"7\n)linear/linear_model/pitcher2_Game/weights\022\002\001\001\032\002\000\000\"\002\001\001(\0012Dlinear/linear_model/pitcher2_Game/weights/part_0/Initializer/zeros:08\001"
        value: "\n)linear/linear_model/bias_weights/part_0:0\022.linear/linear_model/bias_weights/part_0/Assign\032=linear/linear_model/bias_weights/part_0/Read/ReadVariableOp:0\"+\n linear/linear_model/bias_weights\022\001\001\032\001\000\"\001\001(\0012;linear/linear_model/bias_weights/part_0/Initializer/zeros:08\001"
      }
    }
  }
  collection_def {
    key: "variables"
    value {
      bytes_list {
        value: "\n\rglobal_step:0\022\022global_step/Assign\032\022global_step/read:02\037global_step/Initializer/zeros:0"
        value: "\n1linear/linear_model/batter3_Game/weights/part_0:0\0226linear/linear_model/batter3_Game/weights/part_0/Assign\032Elinear/linear_model/batter3_Game/weights/part_0/Read/ReadVariableOp:0\"6\n(linear/linear_model/batter3_Game/weights\022\002\001\001\032\002\000\000\"\002\001\001(\0012Clinear/linear_model/batter3_Game/weights/part_0/Initializer/zeros:08\001"
        value: "\n4linear/linear_model/batter3_HitRate/weights/part_0:0\0229linear/linear_model/batter3_HitRate/weights/part_0/Assign\032Hlinear/linear_model/batter3_HitRate/weights/part_0/Read/ReadVariableOp:0\"9\n+linear/linear_model/batter3_HitRate/weights\022\002\001\001\032\002\000\000\"\002\001\001(\0012Flinear/linear_model/batter3_HitRate/weights/part_0/Initializer/zeros:08\001"
        value: "\n1linear/linear_model/batter4_Game/weights/part_0:0\0226linear/linear_model/batter4_Game/weights/part_0/Assign\032Elinear/linear_model/batter4_Game/weights/part_0/Read/ReadVariableOp:0\"6\n(linear/linear_model/batter4_Game/weights\022\002\001\001\032\002\000\000\"\002\001\001(\0012Clinear/linear_model/batter4_Game/weights/part_0/Initializer/zeros:08\001"
        value: "\n4linear/linear_model/batter4_HitRate/weights/part_0:0\0229linear/linear_model/batter4_HitRate/weights/part_0/Assign\032Hlinear/linear_model/batter4_HitRate/weights/part_0/Read/ReadVariableOp:0\"9\n+linear/linear_model/batter4_HitRate/weights\022\002\001\001\032\002\000\000\"\002\001\001(\0012Flinear/linear_model/batter4_HitRate/weights/part_0/Initializer/zeros:08\001"
        value: "\n1linear/linear_model/batter8_Game/weights/part_0:0\0226linear/linear_model/batter8_Game/weights/part_0/Assign\032Elinear/linear_model/batter8_Game/weights/part_0/Read/ReadVariableOp:0\"6\n(linear/linear_model/batter8_Game/weights\022\002\001\001\032\002\000\000\"\002\001\001(\0012Clinear/linear_model/batter8_Game/weights/part_0/Initializer/zeros:08\001"
        value: "\n4linear/linear_model/batter8_HitRate/weights/part_0:0\0229linear/linear_model/batter8_HitRate/weights/part_0/Assign\032Hlinear/linear_model/batter8_HitRate/weights/part_0/Read/ReadVariableOp:0\"9\n+linear/linear_model/batter8_HitRate/weights\022\002\001\001\032\002\000\000\"\002\001\001(\0012Flinear/linear_model/batter8_HitRate/weights/part_0/Initializer/zeros:08\001"
        value: "\n1linear/linear_model/batter9_Game/weights/part_0:0\0226linear/linear_model/batter9_Game/weights/part_0/Assign\032Elinear/linear_model/batter9_Game/weights/part_0/Read/ReadVariableOp:0\"6\n(linear/linear_model/batter9_Game/weights\022\002\001\001\032\002\000\000\"\002\001\001(\0012Clinear/linear_model/batter9_Game/weights/part_0/Initializer/zeros:08\001"
        value: "\n4linear/linear_model/batter9_HitRate/weights/part_0:0\0229linear/linear_model/batter9_HitRate/weights/part_0/Assign\032Hlinear/linear_model/batter9_HitRate/weights/part_0/Read/ReadVariableOp:0\"9\n+linear/linear_model/batter9_HitRate/weights\022\002\001\001\032\002\000\000\"\002\001\001(\0012Flinear/linear_model/batter9_HitRate/weights/part_0/Initializer/zeros:08\001"
        value: "\n1linear/linear_model/pitcher1_ERA/weights/part_0:0\0226linear/linear_model/pitcher1_ERA/weights/part_0/Assign\032Elinear/linear_model/pitcher1_ERA/weights/part_0/Read/ReadVariableOp:0\"6\n(linear/linear_model/pitcher1_ERA/weights\022\002\001\001\032\002\000\000\"\002\001\001(\0012Clinear/linear_model/pitcher1_ERA/weights/part_0/Initializer/zeros:08\001"
        value: "\n2linear/linear_model/pitcher1_Game/weights/part_0:0\0227linear/linear_model/pitcher1_Game/weights/part_0/Assign\032Flinear/linear_model/pitcher1_Game/weights/part_0/Read/ReadVariableOp:0\"7\n)linear/linear_model/pitcher1_Game/weights\022\002\001\001\032\002\000\000\"\002\001\001(\0012Dlinear/linear_model/pitcher1_Game/weights/part_0/Initializer/zeros:08\001"
        value: "\n1linear/linear_model/pitcher2_ERA/weights/part_0:0\0226linear/linear_model/pitcher2_ERA/weights/part_0/Assign\032Elinear/linear_model/pitcher2_ERA/weights/part_0/Read/ReadVariableOp:0\"6\n(linear/linear_model/pitcher2_ERA/weights\022\002\001\001\032\002\000\000\"\002\001\001(\0012Clinear/linear_model/pitcher2_ERA/weights/part_0/Initializer/zeros:08\001"
        value: "\n2linear/linear_model/pitcher2_Game/weights/part_0:0\0227linear/linear_model/pitcher2_Game/weights/part_0/Assign\032Flinear/linear_model/pitcher2_Game/weights/part_0/Read/ReadVariableOp:0\"7\n)linear/linear_model/pitcher2_Game/weights\022\002\001\001\032\002\000\000\"\002\001\001(\0012Dlinear/linear_model/pitcher2_Game/weights/part_0/Initializer/zeros:08\001"
        value: "\n)linear/linear_model/bias_weights/part_0:0\022.linear/linear_model/bias_weights/part_0/Assign\032=linear/linear_model/bias_weights/part_0/Read/ReadVariableOp:0\"+\n linear/linear_model/bias_weights\022\001\001\032\001\000\"\001\001(\0012;linear/linear_model/bias_weights/part_0/Initializer/zeros:08\001"
      }
    }
  }
  signature_def {
    key: "predict"
    value {
      inputs {
        key: "examples"
        value {
          name: "input_example_tensor:0"
          dtype: DT_STRING
          tensor_shape {
            dim {
              size: -1
            }
          }
        }
      }
      outputs {
        key: "predictions"
        value {
          name: "linear/linear_model/linear_model/weighted_sum:0"
          dtype: DT_FLOAT
          tensor_shape {
            dim {
              size: -1
            }
            dim {
              size: 1
            }
          }
        }
      }
      method_name: "tensorflow/serving/predict"
    }
  }
  signature_def {
    key: "regression"
    value {
      inputs {
        key: "inputs"
        value {
          name: "input_example_tensor:0"
          dtype: DT_STRING
          tensor_shape {
            dim {
              size: -1
            }
          }
        }
      }
      outputs {
        key: "outputs"
        value {
          name: "linear/linear_model/linear_model/weighted_sum:0"
          dtype: DT_FLOAT
          tensor_shape {
            dim {
              size: -1
            }
            dim {
              size: 1
            }
          }
        }
      }
      method_name: "tensorflow/serving/regress"
    }
  }
  signature_def {
    key: "serving_default"
    value {
      inputs {
        key: "inputs"
        value {
          name: "input_example_tensor:0"
          dtype: DT_STRING
          tensor_shape {
            dim {
              size: -1
            }
          }
        }
      }
      outputs {
        key: "outputs"
        value {
          name: "linear/linear_model/linear_model/weighted_sum:0"
          dtype: DT_FLOAT
          tensor_shape {
            dim {
              size: -1
            }
            dim {
              size: 1
            }
          }
        }
      }
      method_name: "tensorflow/serving/regress"
    }
  }
}
